data.pth (torch, 5226 bytes, 6 tensors)

l1.weight f4 [8, 49]
0	0xbdd3d2a7	-0.10342913
1	0xbe988a7f	-0.29793164
2	0x3eab95c0	0.33512688
3	0x3f35b232	0.7097503
4	0x3e95f536	0.29288644
5	0x3e97eff7	0.29675266
6	0x3f4347ca	0.76281416
7	0xbe99923b	-0.29994377
8	0x3e0d80df	0.13818692
9	0x3e01054a	0.12599674
10	0xbe4de631	-0.20107342
11	0x3ece326a	0.40272838
12	0xbdeb6dca	-0.1149555
13	0x3e7d903c	0.24762052
14	0x3e80cee1	0.25157836
15	0x3edde87a	0.43341428
16	0x3e8a2c20	0.2698679
17	0x3edb0bea	0.42782527
18	0xbeafb9bd	-0.34321395
19	0x3eec3351	0.461329
20	0x3e43fbb5	0.19138987
21	0x3e561eb7	0.20910154
22	0xbe98c5af	-0.2983832
23	0xbd9bd552	-0.07609047
24	0xbe3464d2	-0.17616585
25	0x3eb5c3d6	0.35500973
26	0x3e847159	0.25867727
27	0xbe45285b	-0.19253676
28	0x3f078155	0.5293172
29	0x3e5b630f	0.21424507
30	0xbe0d01b9	-0.13770188
31	0xbe643433	-0.22285537
32	0xbde75af8	-0.11296648
33	0x3e2b604f	0.16735958
34	0x3e704ec4	0.23467547
35	0xbdc0c87d	-0.0941324
36	0x3e2d8028	0.16943419
37	0x3e0af19f	0.13568734
38	0x3d698564	0.057011977
39	0x3e9fb480	0.31192398
40	0x3e3e1cab	0.18565623
41	0x3ef9b046	0.48767298
42	0xbd36b60e	-0.044607215
43	0xbec3c157	-0.38233444
44	0xbdacdbbf	-0.08440351
45	0x3e32be6a	0.1745545
46	0x3e3cd779	0.18441571
47	0x3e96e90b	0.29474673
48	0x3e93ee55	0.2889277
49	0x3e79944b	0.24372976
50	0x3d7029d5	0.058633644
51	0xbee9a9ed	-0.45637456
52	0x3ebbed62	0.36704546
53	0xbea44002	-0.32080084
54	0x3e08a0b1	0.13342549
55	0x3e7cd65a	0.24691144
56	0xbc3cdcb5	-0.01152723
57	0xbcc71e7a	-0.024306525
58	0xbec61555	-0.3868815
59	0x3f5a6f9d	0.8532656
60	0xbe6716dc	-0.22567314
61	0x3eab4180	0.3344841
62	0xbe6c6a4e	-0.23087427
63	0xbe6c0aa9	-0.23050942
64	0x3d95eb88	0.07320315
65	0x3e1dc35e	0.15406558
66	0x3e389ff6	0.1802977
67	0x3f213bab	0.6298167
68	0x3ecc9126	0.3995449
69	0xbe28595b	-0.16440336
70	0x3e884efc	0.2662276
71	0x3f704128	0.9384942
72	0x3ea3a6d4	0.31963217
73	0x3f229f39	0.63524204
74	0xbedb6609	-0.42851284
75	0xbef3460d	-0.47514382
76	0xbdcf63ed	-0.10126481
77	0xbe86ecb5	-0.26352468
78	0xbeb26e15	-0.3484961
79	0x3effe0eb	0.49976286
80	0x3e3cdffd	0.1844482
81	0x3f182f89	0.5944753
82	0xbe01d0b0	-0.12677264
83	0xbea62cf9	-0.32456186
84	0x3f4ac017	0.79199356
85	0xbe5a50a2	-0.21319821
86	0xbeca2cbc	-0.39487255
87	0x3f17c03c	0.592777
88	0xbead1a67	-0.33809206
89	0xbe6c0eb2	-0.23052481
90	0xbe4030da	-0.18768635
91	0x3f056a13	0.5211498
92	0x3f13f112	0.5778972
93	0xbebc173c	-0.36736476
94	0x3d75d2cc	0.060015485
95	0x3e62135b	0.22077696
96	0x3ee2d774	0.44305003
97	0x3edafe4d	0.4277214
98	0x3eb4dd77	0.35325214
99	0xbe8ae94f	-0.27131125
100	0xbe7ffe1e	-0.24999282
101	0x3dbeaac7	0.09309917
102	0xbd73a39b	-0.0594822
103	0x3db728d6	0.08943336
104	0x3d06f81f	0.03295147
105	0xbe8ac111	-0.27100423
106	0xbd1c7c5b	-0.038204532
107	0xbdd3effd	-0.103485085
108	0x3f33091e	0.69935787
109	0x3c828695	0.015933314
110	0x3f58e0ae	0.84717834
111	0xbe6842a0	-0.22681665
112	0x3cb0f1fa	0.021599758
113	0x3eb8bc31	0.3608108
114	0x3e59a097	0.21252666
115	0x3e862bb4	0.26205218
116	0x3e7fb8a2	0.24972776
117	0x3e3834eb	0.17988937
118	0xbd5341db	-0.051576477
119	0x3e039c79	0.12852658
120	0x3f0c197e	0.547264
121	0xbcd35b56	-0.025800388
122	0x3f06c526	0.52644575
123	0xbe1df8ae	-0.15426895
124	0xbe10e453	-0.14149599
125	0x3f27b071	0.65503603
126	0xbd56f2fb	-0.052477818
127	0x3f25b72d	0.6473263
128	0x3f1030f1	0.5632468
129	0xbe7b047d	-0.24513431
130	0x3cd42800	0.02589798
131	0xbe6a003b	-0.2285165
132	0x3ec7f5aa	0.39054614
133	0x3f4b2a16	0.79361093
134	0xbd6ffd36	-0.05859109
135	0x3f3893e9	0.72100693
136	0x3f1f9717	0.6233992
137	0xbd411335	-0.047137458
138	0xbe695568	-0.22786486
139	0x3d2ddbbd	0.042445887
140	0xbccf557f	-0.025309322
141	0x3d9a8b8a	0.07546146
142	0x3f2c813c	0.67384696
143	0x3ebcf8cf	0.36908576
144	0x3f097ea2	0.5370885
145	0x3e3d368c	0.18477839
146	0x3eb49363	0.35268697
147	0x3ec574c8	0.3856566
148	0xbf26e95b	-0.6519982
149	0x3ef85d76	0.48508805
150	0x3f13d255	0.57742816
151	0x3ed81813	0.42205867
152	0xbe287221	-0.16449787
153	0x3f491050	0.78540516
154	0xbf0c4cf9	-0.5480495
155	0xbd9f245c	-0.07770607
156	0x3ecf9e09	0.4055026
157	0x3e9dcb85	0.30819336
158	0xbe87ab58	-0.26497912
159	0x3f2e39cb	0.68056935
160	0x3ec6f7bf	0.3886089
161	0x3e210618	0.15724981
162	0x3ef8694e	0.4851784
163	0x3e65a1f5	0.22425063
164	0x3e070c7d	0.13188358
165	0xbe403ffd	-0.1877441
166	0x3eb7d3d9	0.35903814
167	0x3e4336c8	0.19063866
168	0x39912a00	0.00027687848
169	0xbeac9c54	-0.3371302
170	0xbe8eeb25	-0.27913776
171	0x3ec7ef3d	0.39049712
172	0x3edf540b	0.43618807
173	0x3f0ba0f8	0.54542494
174	0x3ec9bfb5	0.39404073
175	0xbec88209	-0.3916171
176	0x3d53e754	0.051734284
177	0x3e5e151b	0.21687739
178	0xbe8da7ff	-0.27667233
179	0x3e84c626	0.25932425
180	0x3eb07365	0.3446304
181	0x3d96e46c	0.07367787
182	0x3e6a9820	0.22909594
183	0x3e411319	0.18854941
184	0x3e9a35b4	0.30119097
185	0x3ea98eb7	0.33116695
186	0x3e71f1b4	0.23627359
187	0x3e12dfe4	0.1434322
188	0xbe899261	-0.2686949
189	0x3e3edf4d	0.1863987
190	0xbdda6963	-0.10664632
191	0x3e353583	0.17696194
192	0x3e17371e	0.1476712
193	0x3e8b0805	0.27154556
194	0x3ed5ca23	0.4175578
195	0x3dec9648	0.115521014
196	0x3ed55834	0.41668856
197	0x3e287570	0.16451049
198	0xbf0bbc86	-0.5458454
199	0x3f2bf4c0	0.67170334
200	0xbe86e39c	-0.26345527
201	0xbd9dbbf1	-0.077018626
202	0x3eedf5b8	0.4647653
203	0x3e7846f4	0.24245816
204	0x3d6ad1f0	0.05732912
205	0xbe8e1a8c	-0.2775463
206	0x3dfaedd8	0.12252396
207	0xbde95814	-0.11393753
208	0x3e809cd8	0.25119662
209	0xbe8987b3	-0.26861343
210	0xbe653e2d	-0.22387
211	0x3ecb3036	0.3968522
212	0x3e543832	0.20724562
213	0x3e78a74b	0.24282567
214	0x3f0c3c7f	0.5477981
215	0x3e42a2f9	0.19007482
216	0xbe8991f6	-0.26869172
217	0x3e99a97e	0.30012125
218	0x3f8d6fe9	1.1049777
219	0x3d52d812	0.051475592
220	0xbd7ccbd0	-0.06171781
221	0xbf0bd514	-0.54622006
222	0xbf0bccc7	-0.5460934
223	0xbdacf4a9	-0.08445103
224	0xbe505d71	-0.20348145
225	0xbeb7d49f	-0.35904405
226	0xbc3eb7a3	-0.011640462
227	0xbd53c0b6	-0.051697455
228	0x3f130ceb	0.57441586
229	0xbe90d755	-0.28289285
230	0xbd20b425	-0.0392343
231	0x3dd69518	0.10477656
232	0xbe2f5776	-0.17123207
233	0xbf081e0d	-0.53170854
234	0x3d9de761	0.07710148
235	0xbeb52be0	-0.35385036
236	0xbe87f80d	-0.26556435
237	0xbe3f5b3b	-0.18687145
238	0x3f0bab5b	0.5455834
239	0x3f2eea87	0.6832661
240	0xbf019e73	-0.506324
241	0xbdb53088	-0.08847147
242	0xbcf3c11a	-0.029755164
243	0x3efa9728	0.48943448
244	0xbe8e05a0	-0.27738667
245	0xbd06bd70	-0.032895505
246	0xbe8ff2d5	-0.28114954
247	0x3eb998d7	0.3624942
248	0x3eefeb8b	0.46859393
249	0x3eebc9e9	0.46052483
250	0xbe2e18a1	-0.17001583
251	0x3f25e23b	0.64798325
252	0xbed3003c	-0.41211116
253	0x3cc17ff3	0.023620581
254	0x3eaa3b26	0.33248252
255	0xbce2104f	-0.027595667

l1.bias f4 [8]
0	0x3e980dce	0.29698032
1	0x3f0d289c	0.5514009
2	0x3e8ac23f	0.27101323
3	0x3f2e5bd3	0.6810886
4	0x3f0bd929	0.54628235
5	0x3f1f87af	0.6231641
6	0x3f84d430	1.0377254
7	0x3f2208f6	0.63294923

l2.weight f4 [8, 8]
0	0xbf172430	-0.5903959
1	0x3d51e924	0.05124773
2	0x3f066c0e	0.5250863
3	0x3ee1a0ed	0.4406809
4	0xbf71240b	-0.9419562
5	0xbd68bb09	-0.056818996
6	0x3f545665	0.8294433
7	0x3eac69cb	0.33674464
8	0xbd35ae38	-0.0443556
9	0xbe4bd5bd	-0.19905753
10	0xbceecc20	-0.029150069
11	0xbe91a5e4	-0.28446877
12	0xbe75f157	-0.24017845
13	0xbe829348	-0.25502992
14	0xbe91789b	-0.28412327
15	0xbe49e384	-0.19715697
16	0xbf208265	-0.62698966
17	0x3f88690d	1.0657059
18	0xbee21d70	-0.44163084
19	0x3ebb0729	0.365289
20	0x3fa36031	1.276373
21	0x3f82641e	1.0186803
22	0xbe5c269d	-0.21499105
23	0x3f130100	0.574234
24	0xbfef002c	-1.8671927
25	0x3f87a58d	1.0597397
26	0xbed9eb20	-0.425622
27	0xbef05ed5	-0.4694735
28	0x3f6b7409	0.9197393
29	0xbe03fae2	-0.12888673
30	0x3fc96680	1.5734406
31	0xbf849825	-1.0358931
32	0xbf01f4a2	-0.50763905
33	0x3f49b295	0.7878812
34	0x3f9c80ee	1.2226846
35	0x3f7ca12e	0.9868344
36	0x3f1abfcf	0.60448927
37	0x3f1c5a62	0.61075413
38	0xbf14ca26	-0.58120954
39	0x3f7cf445	0.98810226
40	0x3df994de	0.12186597
41	0xbece7e1e	-0.40330595
42	0xbf6dc2c6	-0.92875326
43	0x3f47dd81	0.78072363
44	0xbed2d834	-0.41180575
45	0x3f82e182	1.022507
46	0x3f97b991	1.1853505
47	0x3f4713c5	0.7776454
48	0x3dade7a0	0.084914446
49	0xbf5b4c3b	-0.85663193
50	0xbf1d1040	-0.6135292
51	0x3f63b44c	0.88946986
52	0xbe257139	-0.16156472
53	0x3f83a4e5	1.0284697
54	0x3fad2073	1.3525528
55	0x3f64334e	0.89140785
56	0xbea23dae	-0.31687683
57	0xbdbbd300	-0.091711044
58	0xbc897e60	-0.016783893
59	0xbdd83052	-0.10556091
60	0xbab28700	-0.0013620555
61	0xbe712c6c	-0.23552102
62	0xbeaa28c5	-0.3323423
63	0x3ea50a15	0.32234254

l2.bias f4 [8]
0	0x3f16a207	0.58840984
1	0xbe191723	-0.14950232
2	0x3ed77705	0.42082992
3	0x3f48884c	0.7833297
4	0xbe7ef2e0	-0.24897337
5	0x3f18d3be	0.5969809
6	0x3eee4c6f	0.4654269
7	0xbeabd8c1	-0.33563808

l3.weight f4 [7, 8]
0	0xbf91a5f9	-1.1378776
1	0xbe9a7d17	-0.3017356
2	0x3ebe2cae	0.37143463
3	0xbfb35ed9	-1.401332
4	0x3e88dd2c	0.2673124
5	0xbe420e3d	-0.18950744
6	0x3e8ed16a	0.27894145
7	0x3ca30690	0.01990059
8	0xbf040682	-0.5157243
9	0xbe8b7ce3	-0.27243719
10	0xbf5c96ab	-0.861674
11	0xbf5726d5	-0.8404363
12	0xbf5b3b78	-0.8563762
13	0xbf264df7	-0.64962715
14	0xbe25111a	-0.16119805
15	0x3e5dfc6e	0.21678326
16	0x3eb366c4	0.3503934
17	0x3e9acb01	0.30233005
18	0x3e9da6e9	0.30791405
19	0xbfc94bbd	-1.5726238
20	0x3ee9dc9b	0.4567612
21	0xbf6fd160	-0.93678856
22	0xbf8763de	-1.0577352
23	0xbe96e3af	-0.29470584
24	0x3d7717b9	0.060325358
25	0x3e1aed62	0.15129617
26	0x3df49bea	0.11943801
27	0x3f3d3416	0.739076
28	0xbfe31922	-1.7742045
29	0x3e5eee24	0.21770531
30	0x3e4332cf	0.1906235
31	0x3e29b2b2	0.16572073
32	0xbf21f77a	-0.63268244
33	0xbe19657f	-0.14980124
34	0x3f288510	0.6582804
35	0x3ecfcddb	0.40586743
36	0xbdb1b14d	-0.086763956
37	0xbf8e971f	-1.1139868
38	0xbf658f07	-0.8967137
39	0x3e8d68a9	0.27618912
40	0x3f2d91cb	0.6780059
41	0x3e9c5817	0.30535957
42	0xbf909aac	-1.1297202
43	0xbf78b425	-0.9714988
44	0x3ef22283	0.47291955
45	0xbe99abff	-0.30014035
46	0x3da0d70c	0.07853517
47	0x3e48df42	0.19616416
48	0x3ed679cb	0.41889796
49	0x3e00aecc	0.1256668
50	0x3caa4e94	0.020789422
51	0xbfb0612c	-1.3779655
52	0xbf55e950	-0.8355913
53	0x3f523e3e	0.82126224
54	0x3f449bbf	0.7680015
55	0xbc6c20a0	-0.014412075

l3.bias f4 [7]
0	0xbfa78ed1	-1.3090459
1	0x401915f2	2.3919644
2	0xbf9f6621	-1.2453042
3	0xbf256a30	-0.64615154
4	0xbf4972b4	-0.7869065
5	0xbf81167b	-1.0084985
6	0xbf84116c	-1.0317817
