data.pth (torch, 7383 bytes, 6 tensors)

l1.weight f4 [16, 49]
0	0xbe11d83b	-0.14242642
1	0xbec2652b	-0.3796781
2	0x3f2477b4	0.6424515
3	0xbe357369	-0.17719807
4	0x3f7b0e41	0.98068625
5	0x3b97f0ac	0.0046368446
6	0xbd5759a2	-0.052575715
7	0xbec46329	-0.38356903
8	0xbd4781c7	-0.04870775
9	0x3f191273	0.59793776
10	0xbe0af221	-0.13568927
11	0xbe398462	-0.18116906
12	0xbde1c847	-0.11024528
13	0x3ef2fb55	0.47457376
14	0x3ec7a7ac	0.3899511
15	0xbe050c27	-0.12992917
16	0x3ddc98dc	0.10771343
17	0xbe803c1a	-0.25045854
18	0xbcd3f74c	-0.025874756
19	0x3d26bd47	0.040707853
20	0x3f10ca7e	0.5655898
21	0xbdb85180	-0.0899992
22	0xbec009d0	-0.37507486
23	0xbe90184d	-0.2814354
24	0xbd6001dd	-0.054689277
25	0x3f44e38f	0.76909727
26	0x3f45c920	0.7726002
27	0xbd53f98e	-0.051751666
28	0xbe363e82	-0.17797282
29	0xbdef456e	-0.116831645
30	0x3b212d23	0.0024593554
31	0xbdb73bea	-0.089469746
32	0xbe10a7e4	-0.14126545
33	0x3ec971a9	0.39344528
34	0xbe3cc9ac	-0.18436307
35	0xbe0203b0	-0.12696719
36	0x3f0b76e2	0.54478276
37	0x3d3c5a64	0.04598464
38	0xbdec0bdf	-0.11525702
39	0x3f24462a	0.6416956
40	0x3eedd8fd	0.4645461
41	0x3d2f1f33	0.042754363
42	0xbbc01160	-0.0058614463
43	0xbe141e16	-0.14464602
44	0x3d5ec83b	0.054390173
45	0xbd00eea2	-0.031477578
46	0x3d273bb7	0.040828433
47	0xbd787024	-0.06065382
48	0x3d784a8e	0.060617976
49	0x3da72da8	0.08163005
50	0x3d6f5f64	0.05844058
51	0xbd3c5232	-0.045976825
52	0xbd87070a	-0.065931395
53	0xbdafa465	-0.08576278
54	0x3daebdf6	0.08532326
55	0xbcf0de08	-0.029402748
56	0x3d6ae4a0	0.05734694
57	0xbda20a2a	-0.07912095
58	0x3ddfac1e	0.109215006
59	0xbcb29567	-0.021799756
60	0xbda65925	-0.08122472
61	0xbdac1d58	-0.084040344
62	0xbe1177af	-0.14205812
63	0xbd113e7c	-0.03545998
64	0x3d28d33c	0.041217074
65	0x3d2c791c	0.042107686
66	0x3cae87d0	0.021304995
67	0xbddfb4ce	-0.10923158
68	0x3d14bc94	0.036312655
69	0xbe0588ac	-0.13040417
70	0x3d155e38	0.036466807
71	0xbdc48910	-0.09596455
72	0xbddc547a	-0.107583
73	0xbc81e0f0	-0.015854329
74	0x3db123e6	0.08649425
75	0xbd85cd53	-0.06533303
76	0xbda35d37	-0.07976764
77	0x3d99625a	0.07489462
78	0xbd0e0ec4	-0.03468205
79	0x3e0136d9	0.12618579
80	0xbdbeecb0	-0.09322488
81	0xbdcf690c	-0.10127458
82	0x3cc8f068	0.024528697
83	0xbc9c1454	-0.019052662
84	0x3dbdffaf	0.092772834
85	0x3ceda468	0.02900906
86	0xbd50b9b2	-0.050958343
87	0x3d941abb	0.07231661
88	0xbdf91e18	-0.12163943
89	0xbe04882c	-0.1294257
90	0x3df0b152	0.11752571
91	0x3dc2bb0e	0.09508334
92	0x3df0c2f6	0.11755936
93	0x3cf23510	0.029566318
94	0xbdcd9f2a	-0.10040124
95	0xbd964aa8	-0.07338458
96	0xbde05238	-0.10953182
97	0xbdf4caca	-0.119527414
98	0x3eef1676	0.46696824
99	0xbe654ddf	-0.22392987
100	0xbe567cdf	-0.20946072
101	0xbe9462a3	-0.28981504
102	0xbe7b5cf1	-0.24547173
103	0xbdb8eca0	-0.09029508
104	0xbe9c8802	-0.30572516
105	0xbe5d6491	-0.21620394
106	0x3cd03f0b	0.025420686
107	0xbdea8634	-0.114513785
108	0xbd0a989c	-0.033836946
109	0xbdbde992	-0.092730656
110	0xbd4ca750	-0.04996425
111	0xbce1c0a7	-0.027557684
112	0x3d13ea66	0.03611221
113	0x3df7acd3	0.120935105
114	0x3d98a140	0.07452631
115	0x3ea92092	0.33032662
116	0x3fb07c94	1.3788018
117	0x3dbdad4f	0.092615716
118	0xbe31d7af	-0.17367433
119	0x3db08b0c	0.08620271
120	0x4001f77c	2.0307302
121	0xbe24aa47	-0.1608058
122	0x3d1f1094	0.03883417
123	0xbe59258b	-0.21205728
124	0xbe5cfc8b	-0.21580712
125	0x3e5b8a4f	0.2143948
126	0xbe89030c	-0.26760137
127	0x3eb2cde8	0.3492272
128	0xbd5db042	-0.05412317
129	0xbdc04dc5	-0.09389833
130	0x3f898ab4	1.0745454
131	0xbdfefa83	-0.12450125
132	0x3dd9570a	0.106123045
133	0xbe2d7a45	-0.16941173
134	0xbdd021a7	-0.10162669
135	0x3eeea7d4	0.46612418
136	0x3dea0f98	0.114287555
137	0xbde8e438	-0.11371654
138	0xbca1a4bf	-0.019731877
139	0xbdeb2a74	-0.11482707
140	0x3f9be350	1.2178745
141	0x3fa45c62	1.2840693
142	0x3ec5a7b7	0.3860452
143	0xbc9b8f98	-0.01898937
144	0xbdf81bbf	-0.12114667
145	0xbde4df0b	-0.111753546
146	0xbe49479a	-0.1965622
147	0xbe1d9bd9	-0.15391482
148	0xbebd01fe	-0.36915582
149	0x3f32164e	0.69565284
150	0xbe275d2d	-0.16344137
151	0x3f4ab282	0.7917863
152	0xbd5a937c	-0.05336331
153	0x3bb73e97	0.005592178
154	0xbecb2ebd	-0.39684096
155	0xbbbdf840	-0.005797416
156	0x3f03e0cd	0.51514894
157	0xbdb9e324	-0.09076527
158	0xbd7317f3	-0.05934901
159	0xbdd4385f	-0.103623144
160	0x3eca035c	0.39455688
161	0x3eef00a5	0.4668018
162	0xbd820f01	-0.06350518
163	0x3ca0a7ff	0.019611357
164	0xbe58ebbf	-0.2118368
165	0x3cfa0fff	0.030525206
166	0x3d11b4eb	0.035572927
167	0x3ee0c797	0.43902275
168	0x3d8e6fc0	0.06954908
169	0xbed16e59	-0.409045
170	0xbe8095c5	-0.25114265
171	0x3c95ba45	0.018277297
172	0x3f31d102	0.69459546
173	0x3f43599a	0.76308596
174	0xbd0ce922	-0.03440202
175	0xbdb86502	-0.09003641
176	0xbe0c9d15	-0.13731797
177	0x3d73ba29	0.059503708
178	0xbe0cb1ca	-0.13739696
179	0xbceb4770	-0.028720587
180	0x3ecb5e73	0.39720497
181	0xbe07ea24	-0.13272911
182	0xbe5ebbf6	-0.21751389
183	0x3f376cbf	0.7165031
184	0x3d5a07fe	0.05323028
185	0xbd92ee2b	-0.07174333
186	0x3f02968f	0.51010984
187	0x3eb4892d	0.35260907
188	0xbdfb39e8	-0.12266904
189	0x3dc5adf3	0.09652319
190	0xbe510811	-0.20413233
191	0x3cb9b981	0.022671463
192	0xbe6da9d5	-0.23209317
193	0xbe04b844	-0.12960917
194	0xbe4563e8	-0.19276392
195	0xbe397ca4	-0.18113953
196	0x3d0006ed	0.031256605
197	0xbd316f44	-0.043319
198	0xbda62eb1	-0.081143744
199	0xbe2daa50	-0.169595
200	0xbe14a41a	-0.14515725
201	0xbd54359b	-0.051808935
202	0xbe49c350	-0.19703412
203	0xbdce05c5	-0.10059694
204	0x3da3f7ff	0.08006286
205	0xbd99b200	-0.07504654
206	0x3f855e03	1.0419315
207	0xbd5377d0	-0.051627934
208	0x3ecac1fd	0.39601126
209	0x3db61b5a	0.08891936
210	0x3d95cc58	0.07314366
211	0xbe93054d	-0.28714982
212	0xbde7d78e	-0.11320411
213	0xbe2906b3	-0.16506462
214	0xbc8cb1d8	-0.017174646
215	0x3c66c44c	0.014084887
216	0xbde88f25	-0.11355428
217	0xbd1f236a	-0.038852133
218	0xbda4fafa	-0.080556825
219	0xbd81dcd8	-0.06340951
220	0x3f68a1dd	0.90871984
221	0xbd965a60	-0.073414564
222	0xbd7d6450	-0.061863244
223	0x3e102d0c	0.14079684
224	0xbe5c37fb	-0.2150573
225	0x3e5f916b	0.21832816
226	0x3f184505	0.59480315
227	0xbd0a7a50	-0.033808053
228	0x3c79b96f	0.015241965
229	0xbd518f4e	-0.051162057
230	0x3e308051	0.17236449
231	0x3f8da89e	1.1067083
232	0xbe057854	-0.13034183
233	0x3e3dca84	0.18534285
234	0x3f2cd792	0.67516434
235	0xbdc5b188	-0.09653002
236	0xbcba0094	-0.022705354
237	0xbe7cc3bf	-0.24684046
238	0x3cacbd47	0.021086348
239	0xbe0e2f9c	-0.13885349
240	0x3e80431f	0.2505121
241	0x3da07eb9	0.078366704
242	0x3e8158ae	0.2526297
243	0x3d483578	0.048879117
244	0x3f18d780	0.59703827
245	0xbd900ee3	-0.070340894
246	0xbef5786b	-0.47943434
247	0x3f4fec66	0.8122009
248	0x3e0ae776	0.13564858
249	0x3f652d66	0.895224
250	0xbdfe6db7	-0.1242327
251	0x3e73a6bf	0.23794077
252	0xbefa11a4	-0.48841584
253	0xbd8fa5a3	-0.070140146
254	0x3ef78bf2	0.48348957
255	0xbe4b54d6	-0.19856581

l1.bias f4 [16]
0	0x3eb848a8	0.35992932
1	0xbe177d42	-0.14793876
2	0x3e53de8e	0.20690367
3	0x3eb6fc68	0.35739446
4	0x3d1be7f8	0.03806302
5	0x3ef15910	0.47138262
6	0x3efc8620	0.4932108
7	0x3e3315d9	0.17488803
8	0x3e759c41	0.23985387
9	0x3e71044c	0.23536795
10	0x3ec9be74	0.39403117
11	0x3eae7269	0.34071663
12	0x3dd6e610	0.104931
13	0x3ef579a3	0.47944364
14	0x3c8abad9	0.016934799
15	0x3e3e1d5f	0.18565892

l2.weight f4 [16, 16]
0	0x3f615de0	0.88033867
1	0x3d983e64	0.07433775
2	0x3e8873ed	0.26650944
3	0x3f52df1c	0.8237169
4	0x3a9c329e	0.001191694
5	0x3f14e14c	0.58156276
6	0x3d5fbfc0	0.054626226
7	0xbc719c5c	-0.014746752
8	0x3e49fc7f	0.19725226
9	0x3cd70727	0.026248528
10	0xbc76d56a	-0.01506553
11	0xbd836573	-0.06415834
12	0xba8d075f	-0.0010759643
13	0x3f883c3c	1.0643382
14	0x3f76d912	0.96424973
15	0xbd3a4434	-0.0454752
16	0x3ef9118d	0.48646203
17	0x3e0c8500	0.1372261
18	0x3f4618bc	0.7738149
19	0x3f11011f	0.56642336
20	0x3a4caf05	0.00078080624
21	0x3e598eb1	0.21245839
22	0x3e291c77	0.16514765
23	0xbe67cd20	-0.22636843
24	0xbdeaaac6	-0.11458354
25	0xbe1ed691	-0.15511538
26	0xbd1ae3b2	-0.037814803
27	0xbd82e839	-0.06391949
28	0xbe60aee7	-0.2194172
29	0x3f46941e	0.7756976
30	0x3f8d896f	1.1057566
31	0xbe867a48	-0.26265168
32	0x3f9ae02a	1.209966
33	0x3e757bca	0.23973003
34	0xbe89a8e7	-0.26886675
35	0x3f8ec95f	1.1155204
36	0x3e4df532	0.20113066
37	0x3e8c878c	0.27447164
38	0x3f5b047b	0.8555371
39	0x3db2fb20	0.087393045
40	0x3d9caedd	0.0765054
41	0xbf02261a	-0.5083939
42	0x3ef929a4	0.48664582
43	0xbd8f7380	-0.07004452
44	0xbf2a40ff	-0.66505426
45	0x3d83df5f	0.06439089
46	0xbe7be9a5	-0.24600847
47	0x3dfda70d	0.12385378
48	0x3f859f8b	1.0439314
49	0x3b600200	0.003418088
50	0xbed6dc21	-0.4196482
51	0x3f87947a	1.0592186
52	0xbe4502ac	-0.192393
53	0x3ee0c81e	0.43902677
54	0x3fb185f5	1.3869005
55	0xbdfa8909	-0.12233169
56	0x3de2d128	0.1107505
57	0xbe207f55	-0.15673573
58	0x3f895097	1.0727719
59	0x3f028e10	0.5099802
60	0xbf05acc5	-0.5221675
61	0x3deed7a0	0.11662221
62	0xbed4c7ba	-0.4155863
63	0x3c10a77a	0.008828992
64	0xbeaacc40	-0.33358955
65	0x3d57eea8	0.052717835
66	0x3fd53609	1.6657115
67	0xbea54e53	-0.3228632
68	0x3f08edae	0.5348767
69	0xbf45f165	-0.77321464
70	0xbe65603f	-0.22399996
71	0xbda1779c	-0.07884142
72	0xbf3fa499	-0.7486053
73	0xbe8bc01e	-0.2729501
74	0xbefa671c	-0.4890679
75	0xbdd55654	-0.104168564
76	0x3d97d079	0.0741281
77	0xbd60d50a	-0.05489067
78	0x3f876518	1.0577726
79	0x3dbe6f25	0.09298543
80	0x3f463441	0.77423483
81	0xbe5b7e19	-0.21434821
82	0xbe9f462f	-0.31108233
83	0x3f4f6dc2	0.8102685
84	0xbef67615	-0.48136964
85	0x3f831f08	1.0243845
86	0x3f806993	1.0032219
87	0xbd3c2ec8	-0.04594305
88	0x3f400028	0.7500024
89	0x3e5ef0cc	0.21771544
90	0x3f0bf521	0.5467091
91	0xbc547d77	-0.012969366
92	0x3ebe9b71	0.37227967
93	0xbe8fa6f9	-0.28057078
94	0xbee15084	-0.4400674
95	0xbd0191f0	-0.031633317
96	0xbe9d8c49	-0.30771092
97	0xbe5ea884	-0.21743971
98	0x3e0e01da	0.13867894
99	0xbe9a27eb	-0.3010858
100	0xbf036b15	-0.5133527
101	0xbe41affb	-0.18914787
102	0xbc98ee28	-0.01866825
103	0xbb4dc679	-0.0031398816
104	0x3d5d83b8	0.054080695
105	0x3f03a508	0.5142369
106	0x3e24cb8d	0.16093273
107	0x3ff4beac	1.9120688
108	0xbefcf469	-0.4940522
109	0xbe04634e	-0.12928507
110	0xbce9ce5c	-0.028540783
111	0xbc6cc762	-0.014451833
112	0x3e29e052	0.16589478
113	0xbd02e660	-0.031957984
114	0x3f8f6d55	1.120524
115	0xbd78aa09	-0.060709033
116	0xbc2b13f1	-0.010441766
117	0xbeb4bc76	-0.35300034
118	0x3f14e1bb	0.5815694
119	0xbd0d62a9	-0.034517918
120	0xbd949206	-0.07254414
121	0xbc799e70	-0.015235528
122	0x3f670d61	0.9025479
123	0x3fe185d7	1.761897
124	0xbde2534f	-0.11051046
125	0x3ead6f0f	0.33873793
126	0x3f85a0ab	1.0439657
127	0xbd499e79	-0.049223397
128	0xbe9a82c0	-0.3017788
129	0xbe17b94a	-0.14816776
130	0xb959828a	-0.00020743362
131	0xbe608d1d	-0.2192883
132	0x3f048792	0.51769364
133	0xbdc56e14	-0.09640136
134	0x3beddc43	0.0072589233
135	0x3f93f485	1.1558996
136	0x3e87338a	0.2640651
137	0x3f5cae7b	0.86203736
138	0x3e239f98	0.15978849
139	0x3e2b061e	0.16701552
140	0x3d07b235	0.033128936
141	0xbd04722c	-0.032335445
142	0x3e0d3762	0.13790658
143	0x3f2aa98c	0.6666496
144	0x3f5579f9	0.8338924
145	0x3e78af69	0.24285664
146	0xbe54d02c	-0.20782536
147	0x3f65c733	0.8975708
148	0xbed0878a	-0.40728408
149	0x3ebe9cd8	0.37229037
150	0x3e37a5f0	0.17934394
151	0xbf422497	-0.7583708
152	0x3e337313	0.17524366
153	0xbf8fbe25	-1.1229903
154	0xbccc3f23	-0.02493245
155	0xbf407dbb	-0.7519185
156	0x3e643958	0.222875
157	0xbce006a6	-0.02734692
158	0xbec04e06	-0.37559527
159	0xbf2942f0	-0.66117764
160	0x3f72a0c8	0.9477658
161	0x3d4d1024	0.05006422
162	0xbf0ef796	-0.55846536
163	0x3f2e5538	0.68098783
164	0xbf0e0f50	-0.55492115
165	0x3fabae0b	1.3412489
166	0x3e72c8bd	0.23709388
167	0x3d8c5c38	0.06853527
168	0x3f801768	1.0007143
169	0x3e2fde80	0.17174721
170	0xbd1bdb75	-0.038051087
171	0xbe72bdc4	-0.23705202
172	0x3e2b4b7d	0.16728015
173	0x3ec425b0	0.38310003
174	0xbe25a967	-0.16177903
175	0xbc656827	-0.014001883
176	0xbe7cc5b7	-0.24684797
177	0xbe415cd0	-0.18883061
178	0x3c61fb65	0.013792847
179	0xbf04b040	-0.51831436
180	0x3f52e599	0.8238159
181	0x3e116c4a	0.14201465
182	0xbf129256	-0.5725454
183	0x3ee1d345	0.44106498
184	0x3e9cc59a	0.30619508
185	0x3e3d9982	0.1851559
186	0xbf3a72da	-0.728315
187	0xbee17627	-0.44035456
188	0x3d9dd975	0.07707492
189	0x3eafc790	0.34331942
190	0x3e0cd4d8	0.13753068
191	0x3f0b1378	0.5432658
192	0x3ef83925	0.48481098
193	0xbe7761b0	-0.24158359
194	0xbd509bc7	-0.05092981
195	0x3f2bfa64	0.6717894
196	0xbc9b7459	-0.018976377
197	0x3f7d2246	0.9888042
198	0x3d6996ed	0.0570287
199	0x3db92490	0.09040177
200	0x3f6ff5e6	0.93734586
201	0x3e54636b	0.2074105
202	0x3bcd3dd0	0.006263472
203	0xbf0ec081	-0.5576249
204	0x3d6dcbbf	0.058055636
205	0x3eede1b0	0.46461248
206	0x3e4b8f2b	0.19878833
207	0xbc5d85ef	-0.013520702
208	0xbe22a9b9	-0.15885057
209	0x3d25a070	0.04043621
210	0x3ca4b704	0.0201068
211	0xbe651ef1	-0.22375084
212	0x3eb7e396	0.35915822
213	0xbd8188e2	-0.063249364
214	0xbeb2ec01	-0.34945682
215	0x3ea28773	0.31743965
216	0x3e826700	0.25469208
217	0x3e9ae5f5	0.30253568
218	0xbea65899	-0.3248947
219	0xbeeb8cf7	-0.46005985
220	0x3fb5ea39	1.4212104
221	0x3de591a0	0.112094164
222	0x3e4af4f5	0.19820006
223	0x3eaeb9e6	0.34126204
224	0x3f3f870e	0.7481545
225	0x3df61f80	0.12017727
226	0xbe862c69	-0.26205757
227	0x3f693993	0.91103476
228	0x3e2a2889	0.16617025
229	0x3d9e67fd	0.07734678
230	0x3fb759d6	1.4324291
231	0x3d8e674b	0.06953295
232	0xbd6009e5	-0.054696936
233	0xbdc693a9	-0.09696133
234	0x3fa628d7	1.2981213
235	0x3ee73560	0.4515791
236	0xbf049150	-0.5178423
237	0xbea031a3	-0.3128787
238	0xbeb4c420	-0.35305882
239	0x3db3387f	0.0875101
240	0xbe86d562	-0.26334673
241	0xbdf75f1e	-0.12078689
242	0x3af233d8	0.0018478585
243	0xbe9c1ada	-0.30489236
244	0x3efd0fd3	0.49426135
245	0xbd9f3218	-0.077732265
246	0xbcf3b951	-0.029751452
247	0x3fa6a683	1.3019565
248	0x3e6d6ec4	0.23186785
249	0x3f51afdd	0.8190897
250	0x3dff2a77	0.124592714
251	0x3e83b2e2	0.25722414
252	0x3c54e78a	0.012994656
253	0xbdf1ec6e	-0.118126735
254	0xbe911cc7	-0.28342268
255	0x3f77fef4	0.968734

l2.bias f4 [16]
0	0xbd709d98	-0.058744043
1	0xbcbb5b6d	-0.022870744
2	0xbb7fb9e6	-0.0039020716
3	0x3c4096f5	0.011754741
4	0x3f1f2e1d	0.6217974
5	0x3e675365	0.22590406
6	0x3a6d262c	0.00090465206
7	0xbb74fe70	-0.0037383102
8	0xbe94e79c	-0.29082954
9	0x3ed420e1	0.41431335
10	0xbeb52606	-0.35380572
11	0xbf1063eb	-0.5640246
12	0xbed1d5f2	-0.4098354
13	0xbf0728e2	-0.5279676
14	0xbd2984b2	-0.041386314
15	0xbe42fd87	-0.19042026

l3.weight f4 [7, 16]
0	0x3cfca158	0.030838653
1	0xbea4a4ea	-0.3215707
2	0xbe5532ac	-0.20820111
3	0xbd8eece8	-0.0697878
4	0xbf212391	-0.62944895
5	0x3ec3e192	0.38258034
6	0x3e4f3631	0.20235516
7	0xbf8283e4	-1.01965
8	0x3e815542	0.2526036
9	0x3e0e0c4a	0.13871875
10	0x3ed63dbe	0.4184398
11	0x3e73f80a	0.23825088
12	0x3ef6a9d4	0.48176444
13	0x3e54b50a	0.20772186
14	0xbf098c1a	-0.53729403
15	0x3eb81661	0.35954574
16	0xc002b953	-2.0425613
17	0xbfc246a4	-1.5177808
18	0xc0008f6e	-2.0087543
19	0xbf861992	-1.0476553
20	0x3e5ee10e	0.21765539
21	0x3eb0ff2d	0.34569684
22	0xbf017420	-0.5056782
23	0xbf7aa6e6	-0.97910917
24	0xc002ad98	-2.0418453
25	0x3eef67f8	0.4675901
26	0x3cdcf320	0.0269714
27	0xbfe131bf	-1.7593306
28	0xbfe7a2bc	-1.8096538
29	0x3e6977a9	0.22799553
30	0xbfbd0c62	-1.4769404
31	0xbfc6e842	-1.553963
32	0xbffb2480	-1.9620514
33	0xbfafe744	-1.3742452
34	0x3ec052a2	0.37563044
35	0xbec34cbc	-0.3814448
36	0x3e96e3d0	0.29470682
37	0xbf62cd2a	-0.88594306
38	0xbf0d8977	-0.5528788
39	0xbf9d0195	-1.2266108
40	0x3e6d060f	0.23146842
41	0xbe96ae12	-0.2942968
42	0xbf9ca7d4	-1.2238717
43	0x3e9c81af	0.3056769
44	0xbf2ba103	-0.6704256
45	0x3d9e1478	0.07718748
46	0x3ea461a9	0.3210576
47	0x3ebdcbf8	0.37069678
48	0xbfe8c724	-1.8185773
49	0xbf9920b2	-1.1963103
50	0x3e69f5a2	0.22847608
51	0x3ed046e2	0.4067908
52	0xbeaf3eec	-0.34227693
53	0x3e935728	0.28777432
54	0x3f06ba6f	0.52628225
55	0x3e9851b5	0.29749838
56	0x3e17fe37	0.14843069
57	0xbf37bdc3	-0.7177393
58	0xbf1ef83c	-0.62097526
59	0xbf10d8cb	-0.565808
60	0xbf850b5f	-1.0394095
61	0xbf2125af	-0.62948126
62	0x3f029e49	0.51022774
63	0x3e93abe6	0.28842086
64	0x3def11d6	0.11673324
65	0x3ec499c0	0.38398552
66	0xbfcf7486	-1.6207435
67	0xbe98021a	-0.29689103
68	0x3ec9b344	0.3939458
69	0xbf13dd41	-0.5775948
70	0x3edf4422	0.4360667
71	0x3eab8ba4	0.33504975
72	0xbfb84441	-1.439583
73	0xbf3729f0	-0.71548367
74	0xbfd5b3ee	-1.6695535
75	0xbfcbdfc2	-1.592766
76	0xbf8b3da6	-1.0878189
77	0xbfbf7610	-1.4957905
78	0xbf13cf84	-0.5773852
79	0xbf652f7f	-0.895256
80	0x3e3cdd51	0.184438
81	0x3ebed1c4	0.37269413
82	0xbec8dbea	-0.3923028
83	0xbf4d1ece	-0.8012513
84	0x3ec546e6	0.38530654
85	0xbf2a4042	-0.665043
86	0xbf31ad86	-0.694054
87	0x3e8f1fce	0.27953953
88	0x3e47bfc3	0.19506745
89	0xbf165519	-0.587236
90	0xbe0b0b90	-0.1357863
91	0x3e57bd45	0.21068294
92	0x3ea12c90	0.3147931
93	0x3e0f1011	0.13970973
94	0xbf2b5269	-0.6692262
95	0x3e9eb233	0.3099533
96	0x3e1f0706	0.15530023
97	0x3e9540bf	0.2915096
98	0x3eca64ed	0.39530125
99	0x3ef645c8	0.48100114
100	0xbf8f457a	-1.1193078
101	0x3ebd74b0	0.37003088
102	0xbf65200a	-0.8950201
103	0x3e18e207	0.14929973
104	0xbf7bff73	-0.9843666
105	0x3ee611a7	0.44935343
106	0x3ecb9a89	0.39766338
107	0xbf096085	-0.536629
108	0x3eef309f	0.46716782
109	0xbf9b8203	-1.2149051
110	0x3f0378c1	0.5135613
111	0xbf4d36fb	-0.8016202

l3.bias f4 [7]
0	0xbf8b2981	-1.0872041
1	0x3fcf4f98	1.6196165
2	0xbef48b80	-0.4776268
3	0xbe018e02	-0.12651828
4	0x3f748446	0.95514333
5	0xbf870a52	-1.0550025
6	0xbf167857	-0.58777374
