data.pth (torch, 144618 bytes, 6 tensors)

l1.weight f4 [120, 145]
0.24316911 -0.07421029 -0.03551922 -0.28114346 -0.22681822 -0.1273984 -0.16063735 -0.14513277
0.3949241 -0.043274645 0.037866265 -0.042465936 -0.12116648 -0.040206447 -0.031011906 0.3661519
0.2788387 -0.081550874 -0.24587217 0.34915268 0.06557604 0.46926472 -0.19069183 -0.07990492
0.055373 -0.21579058 0.20543519 -0.2480844 0.20374723 0.116775684 0.38387337 -0.22615846
-0.033719327 -0.33341858 -0.24502024 -0.30897334 -0.13139078 -0.16453066 0.14996575 0.19048707
-0.11318788 0.18228264 0.008380277 -0.12261394 -0.035728272 -0.04886702 -0.07704509 0.038875397
-0.13241379 -0.023149308 0.02702735 0.066258304 -0.22227873 -0.07612281 -0.018381337 0.11238808
-0.0635619 0.14240782 -0.25757277 0.09888277 0.4390084 0.52539164 -0.013967876 0.03521628
0.13599221 -0.008315533 -0.09853708 -0.042179592 0.10628201 -0.15633872 -0.05734349 -0.15456593
-0.08603499 -0.05587449 -0.18248153 -0.27198187 -0.05671009 0.17437722 -0.27917933 -0.067764714
0.32124543 -0.04698462 -0.2654451 -0.063440695 -0.0582151 0.040615596 0.17188312 -0.009516618
0.20156065 -0.08866564 0.18917401 0.05551065 -0.16129133 -0.18212453 -0.3219619 0.020743946
0.12340035 0.028421694 -0.08177618 -0.04951657 0.13754356 -0.063768476 -0.10683463 0.0012249681
0.13229255 -0.012644099 0.1762517 0.36157018 -0.14262576 0.40188223 -0.031897943 0.12991314
-0.18385501 -0.17046493 -0.23772831 0.07249501 0.2980591 -0.025102377 -0.010055732 -0.4144795
0.034961917 -0.05366318 -0.0055275857 -0.41906294 -0.21871164 0.06249659 -0.055008717 -0.1134459
0.09224203 -0.13604954 -0.12717994 -0.32931167 -0.15460369 0.32288787 -0.11485621 -0.19259709
-0.12576787 0.0025676207 -0.11815776 -0.049389794 0.0029536858 0.069336295 0.3590081 0.09064001
0.0349815 -0.043693125 -0.045130767 0.037583373 0.16907844 -0.22595917 -0.13159996 0.246167
0.19712205 0.029313281 0.18442634 0.18614033 0.023658535 -0.0033822337 -0.043055784 0.04564245
-0.076640874 -0.508249 -0.15714052 -0.25576678 -0.001054623 -0.05835303 -0.07053938 -0.066578455
0.14075384 0.21837445 -0.21678038 0.14581539 0.42126232 0.022223111 0.11532603 0.030766139
-0.24013548 0.16901356 -0.093597464 0.11787289 -0.5315032 -0.32849926 -0.27352422 -0.16873701
0.12225715 -0.3790455 0.36959156 -0.09094318 -0.061884694 -0.12273728 -0.01233652 0.06355471
-0.15058982 -0.08728101 -0.11771521 0.2733268 0.027764779 -0.026170975 0.055982277 0.026056841
0.16072653 0.18424599 0.16843385 -0.18382896 0.11238346 0.04443115 -0.09632575 0.021649148
0.0803092 0.019623037 -0.2327578 -0.0721307 0.13648842 -0.20869842 -0.26532587 -0.0079148505
0.3095335 0.35221174 -0.06238863 0.02208331 -0.14069022 -0.104585975 0.02159721 0.2202259
0.06839084 -0.12548238 0.014288884 -0.18683274 0.30240235 -0.05243335 -0.45437312 -0.025495755
0.0025173973 0.09302267 -0.16362903 0.06853717 0.200927 0.28625837 -0.18053819 0.16387177
-0.062188797 -0.062792964 -0.07203974 -0.003896047 -0.14401144 -0.06517362 -0.10951905 -0.026385346
0.39306775 0.24133098 0.40922022 0.002083 0.4256339 -0.2773273 -0.06703133 0.126438
00000000: 5301 793e 91fb 97bd 9a7c 11bd 09f2 8fbe
00000010: 0943 68be ba74 02be 1e7e 24be af9d 14be
00000020: 7e33 ca3e c140 31bd a819 1b3d c3f0 2dbd
00000030: 2226 f8bd 84af 24bd ae0c febc 4378 bb3e
00000040: f2c3 8e3e 2504 a7bd eac5 7bbe 24c4 b23e
00000050: bb4c 863d 7743 f03e b844 43be 31a5 a3bd
00000060: cdce 623d 35f8 5cbe 9a5d 523e d609 7ebe
00000070: 1da3 503e 1728 ef3d 0d8b c43e 1596 67be
00000080: 471d 0abd d7b5 aabe 96e6 7abe c131 9ebe
00000090: 4e8b 06be ba7a 28be 9f90 193e 0b0f 433e
000000a0: 0ccf e7bd 4da8 3a3e 6e4d 093c 041d fbbd
000000b0: cf57 12bd c928 48bd d1c9 9dbd cf3b 1f3d
000000c0: 7b97 07be 9ea3 bdbc 7668 dd3c 6fb2 873d
000000d0: 099d 63be 47e6 9bbd 7594 96bc b92b e63d
000000e0: be2c 82bd 5bd3 113e 94e0 83be 0d83 ca3d
000000f0: b6c5 e03e 1180 063f 85d9 64bc f23e 103d
00000100: 8b41 0b3e e03d 08bc cfcd c9bd 82c4 2cbd
00000110: 62aa d93d 4217 20be 02e1 6abd 8846 1ebe
00000120: 1d33 b0bd a6dc 64bd 70dc 3abe 3541 8bbe
00000130: d748 68bd f18f 323e 98f0 8ebe 3ac8 8abd
00000140: 487a a43e f272 40bd 6ce8 87be 32ed 81bd
00000150: f572 6ebd 8a5c 263d 2102 303e 97eb 1bbc
00000160: ea65 4e3e 5596 b5bd d5b6 413e 235f 633d
00000170: 8e29 25be da7e 3abe 31d8 a4be 35ef a93c
00000180: 53b9 fc3d 9dd4 e83c 457a a7bd e3d1 4abd
00000190: 38d8 0c3e 0c99 82bd 1dcc dabd 1c8f a03a
000001a0: b377 073e 3229 4fbc 537b 343e ba1f b93e
000001b0: 7d0c 12be 82c3 cd3e 6ba7 02bd f307 053e
000001c0: 7d44 3cbe 5c8e 2ebe 0d6f 73be 4478 943d
000001d0: 349b 983e 80a3 cdbc ccc0 24bc a836 d4be
000001e0: 3a34 0f3d eccd 5bbd c020 b5bb 6b8f d6be
000001f0: f2f5 5fbe 6dfc 7f3d d250 61bd 5356 e8bd
00000200: 64e9 bc3d 9250 0bbe 753b 02be 8a9b a8be
00000210: 6e50 1ebe 8f51 a53e bc39 ebbd 2c38 45be
00000220: 4bc9 00be 8745 283b b2fc f1bd f44c 4abd
00000230: a092 413b 3000 8e3d e9cf b73e 78a1 b93d
00000240: c348 0f3d 90f7 32bd 0adb 38bd 06f1 193d
00000250: e622 2d3e d761 67be 24c2 06be 3413 7c3e
00000260: 5dda 493e 6822 f03c 42da 3c3e 929b 3e3e
00000270: 8bcf c13c 77a8 5dbb 435b 30bd 94f3 3a3d
00000280: e4f5 9cbd 9b1c 02bf 72e9 20be ddf3 82be
00000290: 473b 8aba 9603 6fbd f376 90bd 495a 88bd
000002a0: c621 103e 8d9d 5f3e adfb 5dbe a150 153e
000002b0: b2af d73e 3e0d b63c 0e30 ec3d 4509 fc3c
000002c0: 13e6 75be e411 2d3e 07b0 bfbd 5767 f13d
000002d0: 9810 08bf 0e31 a8be 5e0b 8cbe 65c9 2cbe
000002e0: f561 fa3d 4012 c2be 1b3b bd3e 6b40 babd
000002f0: ce7a 7dbd af5d fbbd 1d1f 4abc f928 823d
00000300: 3834 1abe 63c0 b2bd ac14 f1bd 7ef1 8b3e
00000310: f672 e33c 8364 d6bc ac4d 653d 2875 d53c
00000320: 7f95 243e fbaa 3c3e ec79 2c3e a93d 3cbe
00000330: 4d29 e63d 70fd 353d 6f46 c5bd 8e59 b13c
00000340: 2679 a43d 7ec0 a03c 1058 6ebe 43b9 93bd
00000350: 9fc3 0b3e 0ab5 55be cbd8 87be 4aad 01bc
00000360: 2d7b 9e3e 1955 b43e 388b 7fbd 0fe8 b43c
00000370: 1911 10be 2c31 d6bd a2ec b03c e682 613e
00000380: 7f10 8c3d 747e 00be ec1b 6a3c 1551 3fbe
00000390: 7bd4 9a3e 5ac4 56bd 98a3 e8be 79dc d0bc
000003a0: ebfa 243b ab82 be3d 5e8e 27be 375d 8c3d
000003b0: cfbf 4d3e 7590 923e 01df 38be 00ce 273e
000003c0: aeb9 7ebd 9999 80bd 9289 93bd d254 7fbb
000003d0: bc77 13be bf79 85bd 864b e0bd 1526 d8bc
000003e0: 2d40 c93e 781f 773e 5085 d13e f182 083b
000003f0: b0ec d93e d8fd 8dbe b947 89bd f778 013e

l1.bias f4 [120]
0.17242767 0.2144798 0.22937515 0.060714282 0.0916343 -0.03271615 0.07107263 0.13787566
0.061427783 -0.05387622 0.1302584 0.09593957 0.073514745 0.1720736 0.017661205 0.07819118
0.15714416 0.089520894 0.09162486 0.11944933 0.16199784 0.077387184 0.2513111 -0.13649157
-0.17747548 0.1583936 0.12977338 0.089274414 -0.06326303 0.12647639 0.042317633 0.15473326
0.20129631 0.15698951 -0.0008127666 0.22144923 0.17650284 0.17313263 0.05668925 0.05787957
0.10194315 0.1670757 0.0712048 0.003456686 0.27389035 -0.06764129 0.3880586 0.11547148
0.053563815 0.00507174 0.034350347 0.07401547 0.1445748 0.22522552 0.2034367 0.30662024
0.21904808 0.10993848 0.27318543 0.13600275 0.052805405 0.048606098 0.17241566 0.09465952
0.24613744 0.12579794 -0.01722874 0.0942352 -0.0008549151 -0.065767966 0.15532608 0.066765964
0.13120642 0.03486574 0.17850551 0.04651168 0.14738958 0.15641427 0.18170844 0.10620072
0.26623863 0.20564476 0.06953903 0.12574497 0.32559106 0.13089909 0.18199797 0.19729681
0.37156707 0.2574164 0.11280515 0.09379836 0.09968228 0.21214245 0.16647258 0.17546216
-0.015562437 0.071514495 0.117064804 0.03554258 0.18901229 0.021302048 0.03518228 0.30556712
0.29826653 0.1923501 0.306591 0.11349903 0.3591495 -0.04652324 0.017714465 0.13599698
-0.08809377 -0.049398623 0.16522916 0.3179438 0.13522327 0.16151236 0.07788008 0.21564524
00000000: e190 303e 98a0 5b3e 52e1 6a3e 8aaf 783d
00000010: c4aa bb3d 5f01 06bd 878e 913d 472f 0d3e
00000020: b39b 7b3d 50ad 5cbd 7562 053e f77b c43d
00000030: e68e 963d 1034 303e 3bae 903c b322 a03d
00000040: 66ea 203e bb56 b73d d1a5 bb3d daa1 f43d
00000050: c3e2 253e 2c7d 9e3d d9ab 803e 72c4 0bbe
00000060: 22bc 35be ef31 223e 50e3 043e 81d5 b63d
00000070: 0c90 81bd 0783 013e 4155 2d3d 6572 1e3e
00000080: 9f20 4e3e dcc1 203e d80f 55ba 96c3 623e
00000090: 29bd 343e ae49 313e fd32 683d 2113 6d3d
000000a0: 92c7 d03d e415 2b3e d2d3 913d 9189 623b
000000b0: 5b3b 8c3e 8487 8abd 9eaf c63e 507c ec3d
000000c0: bb65 5b3d d730 a63b f3b2 0c3d 6c95 973d
000000d0: 6b0b 143e 85a1 663e b651 503e 54fd 9c3e
000000e0: 244e 603e 6d27 e13d f6de 8b3e 4e44 0b3e
000000f0: 7b4a 583d 3017 473d bb8d 303e dadc c13d
00000100: 740b 7c3e 2dd1 003e 4923 8dbc 62fe c03d
00000110: 621c 60ba 5bb1 86bd cd0d 1f3e 98bc 883d
00000120: fa5a 063e 61cf 0e3d 26ca 363e 0883 3e3d
00000130: 4bed 163e 102b 203e c711 3a3e c37f d93d
00000140: 6e50 883e 8a94 523e 7b6a 8e3d 4ac3 003e
00000150: dfb3 a63e 690a 063e ad5d 3a3e 2d08 4a3e
00000160: 0a3e be3e 15cc 833e 6306 e73d 5b19 c03d
00000170: 3926 cc3d df3b 593e ca77 2a3e 5aac 333e
00000180: 97f9 7ebc 3176 923d acbf ef3d 1995 113d
00000190: 708c 413e a281 ae3c 4b1b 103d 4b73 9c3e
000001a0: 64b6 983e 6df7 443e 7ff9 9c3e 2e72 e83d
000001b0: 71e2 b73e 278f 3ebd ed1d 913c cb42 0b3e
000001c0: 826a b4bd 3656 4abd d531 293e 88c9 a23e
000001d0: f877 0a3e 7f63 253e 977f 9f3d 1bd2 5c3e

l2.weight f4 [120, 120]
0.079152785 0.14644189 0.6196394 -0.27165526 0.22057371 -0.24067438 -0.1352836 0.010831011
-0.12103313 0.13915886 0.02512081 0.0026810146 0.074066885 -0.116927594 -0.17552719 0.18172063
0.31617662 0.078753546 -0.46197304 0.10175366 0.10811239 0.07870201 -0.2997828 -0.0064019104
-0.06796322 -0.17393698 -0.0038724304 0.23512958 -0.16547528 0.25883296 -0.36272186 0.04943171
0.11764551 0.24343638 -0.27606383 -0.09881568 -0.12167534 -0.013718736 -0.42950785 -0.08661232
-0.6697755 -0.09741475 -0.05605946 0.07664378 -0.15205692 -0.088093795 -0.11543264 0.045580808
0.18629065 0.11689732 0.365845 0.21974745 0.13631114 0.3962907 0.7518545 0.22452664
0.07665565 0.31669343 0.12805729 0.32787326 0.017532332 0.13031329 0.29507574 -0.021836387
-0.003925655 0.08793677 -0.053151917 0.044077355 0.081790335 -0.14861292 0.14455712 0.15746665
0.01583124 0.012582051 0.23537765 0.04070722 0.4946984 -0.0698157 -0.29598907 0.017764524
0.06964652 0.14360508 -0.07800191 -0.089411445 -0.040582485 -0.035664346 0.4511393 0.25046468
0.14230727 -0.23557097 -0.04899057 0.38000453 0.009893005 0.33136374 0.027097879 0.033785082
-0.45159695 0.14019628 0.015985359 0.03313971 0.050440215 0.09700234 -0.0067979363 0.2164642
0.80024666 0.11730227 -0.033848256 -0.1669452 0.06547864 -0.002632312 0.21013044 -0.08803775
-0.28299215 -0.023314066 -0.19044457 0.23273624 0.39024085 -0.069523335 -0.015328435 -0.12259061
-0.2840893 -0.38492474 0.1206399 0.17639644 -0.299606 -0.030638985 -0.2076361 0.42275926
0.2975931 -0.05498626 -0.19441475 -0.08071686 -0.32638574 -0.18273236 0.059277706 -0.17926928
0.19432305 0.10162835 -0.14715502 -0.22386703 0.1865286 0.31799665 -0.22203383 0.18000579
0.10190788 0.5254268 -0.17181654 -0.13787752 0.017918361 0.104634896 0.024911677 -0.12763664
-0.29646605 0.34106958 -0.18835509 -0.05668653 -0.09059947 -0.36125946 -0.088514075 0.042220846
-0.011873548 -0.01874938 -0.5409645 0.026971007 0.17967625 0.44678092 0.17338645 0.19660994
-0.15107816 0.23674324 0.18176585 0.1990529 0.19253637 0.08715486 0.13598198 0.1604082
0.21901898 -0.19732188 0.41742533 -0.35353416 0.14509176 -0.21969119 -0.040017214 0.12912063
-0.086126074 -0.2706596 0.005203978 7.2390767e-06 0.036035057 0.04960777 -0.118943654 0.13146989
0.16152297 -0.12942101 0.042187735 0.21934526 -0.15546018 0.007000784 -0.04902236 0.19486575
0.27378136 0.1350302 -0.12297325 -0.10807001 0.17935728 -0.02415633 -0.09083029 -0.48684713
0.11006886 -0.025090808 -0.112097524 0.0379731 0.018235797 0.021286128 -0.35844326 -0.22713886
-0.11208236 -0.15481736 -0.11416168 0.03994047 0.02775876 0.13869941 0.12656628 0.22104515
0.019226119 0.08382475 0.047114693 0.08851549 0.2663924 -0.26246217 0.059245326 -0.1308355
-0.060189486 0.21706678 -0.11562476 0.0391047 0.14104186 -0.15528905 -0.069338 -0.08654071
-0.08585706 0.04511888 -0.27348536 -0.28374764 0.19450717 0.06813294 0.13073267 0.31021264
0.2575778 -0.47970805 0.3602135 0.02416532 0.19057046 -0.23551854 0.087477766 0.20634425
00000000: db1a a23d ddf4 153e b0a0 1e3f 6616 8bbe
00000010: 13de 613e 5873 76be c987 0abe 8e74 313c
00000020: 38e0 f7bd a97f 0e3e 28ca cd3c f6b3 2f3b
00000030: 61b0 973d bc77 efbd 66bd 33be f914 3a3e
00000040: e7e1 a13e 8a49 a13d bb87 ecbe 3964 d03d
00000050: 076a dd3d 852e a13d 227d 99be 1ec7 d1bb
00000060: 4d30 8bbd 891c 32be 9ac8 7dbb cfc5 703e
00000070: 5a72 29be c185 843e aeb6 b9be e878 4a3d
00000080: 21f0 f03d 6347 793e 3d58 8dbe e05f cabd
00000090: ec30 f9bd 8dc4 60bc 74e8 dbbe cd61 b1bd
000000a0: 6876 2bbf 6281 c7bd 9b9e 65bd 6af7 9c3d
000000b0: cfb4 1bbe 856a b4bd f367 ecbd f1b2 3a3d
000000c0: fac2 3e3e dd67 ef3d 0950 bb3e 7a05 613e
000000d0: 2695 0b3e 9de6 ca3e 8979 403f 50ea 653e
000000e0: a3fd 9c3d a425 a23e 7321 033e 01df a73e
000000f0: f79f 8f3c d970 053e 2b14 973e 39e2 b2bc
00000100: c8a2 80bb 3118 b43d d3b5 59bd 758a 343d
00000110: b181 a73d fc2d 18be c806 143e f03e 213e
00000120: 84b0 813c f224 4e3c d706 713e 9dbc 263d
00000130: 1c49 fd3e 89fb 8ebd e18b 97be e886 913c
00000140: d6a2 8e3d 360d 133e 77bf 9fbd 591d b7bd
00000150: d239 26bd c714 12bd bbfb e63e e83c 803e
00000160: ffb8 113e 8439 71be 56aa 48bd f48f c23e
00000170: 4516 223c 82a8 a93e 5ffc dd3c 3a62 0a3d
00000180: b737 e7be 9d8f 0f3e baf3 823c 81bd 073d
00000190: 669a 4e3d 2aa9 c63d 39c1 debb cba8 5d3e
000001a0: f7dc 4c3f 2c3c f03d 78a4 0abd aff3 2abe
000001b0: aa19 863d de82 2cbb 6f2c 573e 234d b4bd
000001c0: 59e4 90be 24fd bebc e703 43be 6952 6e3e
000001d0: a6cd c73e 4062 8ebd 1e24 7bbc c910 fbbd
000001e0: 2774 91be db14 c5be 0d12 f73d 45a1 343e
000001f0: f565 99be 9cfe fabc 8f9e 54be e773 d83e
00000200: 1f5e 983e 4639 61bd a914 47be e24e a5bd
00000210: 081c a7be 311e 3bbe 2ecd 723d 5e92 37be
00000220: 9ffc 463e 8622 d03d ceaf 16be 663d 65be
00000230: 5a01 3f3e 75d0 a23e d65c 63be 7053 383e
00000240: 14b5 d03d 5f82 063f adf0 2fbe c42f 0dbe
00000250: 87c9 923c d24a d63d 9313 cc3c 2eb3 02be
00000260: 66ca 97be aca0 ae3e 28e0 40be 2330 68bd
00000270: 378c b9bd 00f7 b8be de46 b5bd c4ef 2c3d
00000280: 4589 42bc 4d98 99bc a67c 0abf 4df2 dc3c
00000290: 0dfd 373e 78c0 e43e 388c 313e 1e54 493e
000002a0: 3cb4 1abe d26c 723e d420 3a3e 86d4 4b3e
000002b0: 4128 453e 3f7e b23d dc3e 0b3e 0c42 243e
000002c0: 8346 603e bf0e 4abe c6b8 d53e 6e02 b5be
000002d0: ef92 143e baf6 60be 17e9 23bd 3338 043e
000002e0: de62 b0bd e593 8abe 2286 aa3b 32e7 f236
000002f0: 7f99 133d 8431 4b3d bb98 f3bd 0ba0 063e
00000300: 4766 253e f186 04be 0ccd 2c3d 0b9c 603e
00000310: f430 1fbe d566 e53b accb 48bd e38a 473e
00000320: 122d 8c3e 5b45 0a3e 66d9 fbbd cf53 ddbd
00000330: 6fa9 373e 7fe3 c5bc 3b05 babd 0744 f9be
00000340: c86b e13d 3d8b cdbc 6393 e5bd ae89 1b3d
00000350: 3d63 953c 3f60 ae3c e085 b7be 1797 68be
00000360: 708b e5bd 7188 1ebe 99cd e9bd 9e98 233d
00000370: 5766 e33c 3807 0e3e 979a 013e a959 623e
00000380: 1880 9d3c 4fac ab3d 56fb 403d 9c47 b53d
00000390: 9664 883e 7161 86be 3aab 723d bef9 05be
000003a0: 4089 76bd c146 5e3e adcc ecbd 402c 203d
000003b0: 476d 103e 1804 1fbe 1501 8ebd 413c b1bd
000003c0: d4d5 afbd 93ce 383d 4606 8cbe 5f47 91be
000003d0: e32c 473e 4889 8b3d c9de 053e 31d4 9e3e
000003e0: 3de1 833e 4b9c f5be e76d b83e 59f6 c53c
000003f0: e724 433e c62b 71be 8b27 b33d e84b 533e

l2.bias f4 [120]
0.04780625 -0.043770213 0.03798677 -0.103606276 0.22289848 0.060822487 0.18404545 0.06523104
-0.066816345 -0.12506586 0.16812116 0.08043453 0.19381912 0.06931622 -0.14259279 -0.049619354
0.08590844 0.034076083 0.039740857 0.103187025 0.053422697 0.09701831 0.10371303 0.16132061
-0.054270737 0.1340404 0.067213476 -0.046042446 0.11890956 -0.043378267 -0.10914442 0.08791554
-0.11703404 0.10182756 0.088407576 -0.18734978 -0.20320243 0.1410041 0.14796874 -0.047634013
0.041718323 -0.012485475 -0.044600412 0.141944 -0.012833317 0.18903232 0.1478187 -0.00027776614
0.042924646 0.23738648 -0.030817648 -0.09428313 0.08979301 0.087219134 0.018725023 -0.034432597
-0.062707774 0.120858274 0.19946057 -0.040118974 -0.024867594 -0.0690049 0.14348942 0.03351951
-0.042049125 0.16482493 0.05080385 0.09578288 -0.0019412896 -0.09668059 0.077396065 -0.12732191
0.19361259 -0.109383814 0.1393933 -0.102698885 0.021993073 0.047587465 -0.060450178 0.11600065
0.13247752 0.009006313 0.056414954 0.19138087 0.07384123 -0.010989676 -0.11123352 0.113961704
-0.008326393 0.14760266 0.13481711 -0.106098734 0.05697366 0.23397629 0.13062567 0.014399653
0.20511216 -0.016613172 -0.0127560515 0.045443892 -0.00041532159 -0.04880024 0.11842855 -0.00213632
-0.09249546 -0.13440901 -0.021722604 0.025197383 0.009129028 -0.051227488 0.12729326 0.11615137
0.24229965 -0.21971413 -0.052742705 -0.02681556 -0.06700245 0.058907162 -0.018498693 -0.024696602
00000000: 7dd0 433d 6548 33bd 0498 1b3d 872f d4bd
00000010: 803f 643e 0021 793d 6976 3c3e da97 853d
00000020: 02d7 88bd 4411 00be f427 2c3e dcba a43d
00000030: 8578 463e aaf5 8d3d d803 12be aa3d 4bbd
00000040: c4f0 af3d 5d93 0b3d 4fc7 223d b853 d33d
00000050: c2d1 5a3d 89b1 c63d 7f67 d43d 3b31 253e
00000060: fe4a 5ebd e341 093e 38a7 893d 0197 3cbd
00000070: db86 f33d 69ad 31bd 1c87 dfbd 100d b43d
00000080: 8baf efbd f88a d03d 080f b53d 9fd8 3fbe
00000090: 4c14 50be 6163 103e 1e85 173e e21b 43bd
000000a0: d5e0 2a3d e18f 4cbc ecae 36bd c559 113e
000000b0: d542 52bc b091 413e c95d 173e 24a1 91b9
000000c0: c1d1 2f3d 7115 733e 4b75 fcbc 8317 c1bd
000000d0: 66e5 b73d f29f b23d 3865 993c 3209 0dbd
000000e0: ef6c 80bd 8b84 f73d 643f 4c3e cb53 24bd
000000f0: 20b7 cbbc 7152 8dbd e4ee 123e c14b 093d
00000100: b43b 2cbd dec7 283e b317 503d d129 c43d
00000110: df72 feba 7900 c6bd d481 9e3d ad60 02be
00000120: 6142 463e 9f04 e0bd 1ebd 0e3e cb53 d2bd
00000130: d12a b43c 13eb 423d 9b9a 77bd c091 ed3d
00000140: 30a8 073e 378f 133c 5e13 673d 59f9 433e
00000150: 123a 973d 0b0e 34bc 66ce e3bd c164 e93d
00000160: 6c6b 08bc 2725 173e 7f0d 0a3e 4b4a d9bd
00000170: 365d 693d 7b97 6f3e bcc2 053e 86ec 6b3c
00000180: ec08 523e 5918 88bc c2fe 50bc 6023 3a3d
00000190: 85bf d9b9 c3e2 47bd ab8a f23d 8101 0cbb
000001a0: 426e bdbd 84a2 09be 9af3 b1bc be6a ce3c
000001b0: eb91 153c ead3 51bd 2a59 023e c5e0 ed3d
000001c0: 661d 783e befc 60be bc08 58bd 4eac dbbc
000001d0: 9538 89bd a348 713d 928a 97bc 8750 cabc

l3.weight f4 [24, 120]
0.1735284 0.12620595 -0.2872541 0.020682873 -0.41237718 0.17748412 -0.46722722 -0.7652869
0.06929298 0.14161915 0.033750482 0.09288622 0.075947896 0.1506762 0.051103808 -0.28710976
-0.5747857 -0.25725898 0.13370495 0.22044843 -0.24091691 -0.16987945 -0.36110836 0.08441498
0.13952042 -0.11578183 -0.19342789 -0.4288478 0.11441244 -0.17112064 0.19140275 -0.5458534
0.031401824 -0.48069924 -0.13600954 -0.2566663 0.194463 -0.27181503 -0.11474884 -0.13540561
-0.283946 -0.42448425 0.08387921 0.14855286 -0.23084714 -0.5841702 -0.23752995 -0.3269127
0.26725504 -0.25435063 0.15296854 0.22284801 -0.77361387 -0.2850393 -0.38924178 0.0738532
-0.15166676 -0.015856061 -0.24549519 -0.54653656 -0.26987737 -0.20608321 -0.5382979 -0.59181136
-0.51820916 -0.28261417 0.15516548 -0.34745598 -0.21459493 0.078719966 0.18440673 0.22568895
-0.10450716 -0.5117785 -0.3569153 0.17111431 -0.49229205 0.08466311 -0.09064192 -0.12944782
-0.40012044 -0.43773556 0.16677456 0.20197088 0.068751745 0.17991848 -0.1949538 -0.4034647
0.11819927 -0.08424139 0.13648361 0.013559522 0.041197453 -0.57680094 -0.123132624 0.15170158
0.13943017 0.1496862 -0.12078445 -0.26173636 -0.31137773 0.056763552 -0.45926282 -0.18381213
0.19224434 -0.038238708 -0.5864355 0.14508408 0.12402236 -0.25372997 0.1172935 -0.31629646
-0.36373162 -0.52918696 -0.016957678 -0.22934031 0.21621405 0.13652883 0.1592913 0.07097239
-0.513958 0.10338965 -0.052944165 -0.20482199 0.1205445 -0.5806491 0.11281 -0.029405445
0.23022324 0.016262954 0.1427035 0.20851989 0.17024 0.19265129 -0.46543264 -0.036548074
-0.50885224 -0.52238965 -0.45817322 -0.04367517 -0.5033763 0.16682975 -0.09980704 0.17598557
0.08671445 0.0653832 0.12908687 -0.3683699 0.12771937 -0.02507932 -0.58969474 -0.21872422
-0.10245002 -0.4763209 -0.3725271 -0.45283526 -0.6656868 -0.12426469 0.118365765 -0.38335988
0.013556688 -0.41886705 -0.43044567 0.16116275 0.11557443 -0.27840394 0.22871768 -0.32128078
-0.49000117 0.27104604 0.14546509 -0.31800786 0.13283779 -0.29982826 -0.1185381 0.046960693
0.0144454045 0.09102381 0.16551909 -0.19498062 -0.43801025 -0.49221227 -0.2257835 -0.5168349
-0.4041854 0.1432358 0.13870049 -0.33279866 0.13111782 0.06822079 -0.49893263 -0.1758563
0.16872346 -0.2612595 0.15442884 -0.8989911 -0.34785855 0.21647859 -0.05323864 -0.26863974
-0.2164322 -0.19724023 -0.014438879 0.16437821 0.18579142 0.16194737 -0.2854459 -0.51971245
0.14579366 -0.16839181 0.26309288 -0.43954432 0.112762734 -0.35083696 0.12809151 0.1369717
-0.42477784 0.08259232 -0.18792231 -0.48840633 -0.34279826 -0.5429134 -0.6053757 -0.27185044
0.18537435 -0.38910842 -0.2278761 0.07266947 -0.5604436 -0.6085016 0.11462784 -0.20748506
0.0958632 -0.5747269 -0.34389168 -0.48659155 -0.2763149 0.18390797 0.014452311 -0.6426729
0.12810762 -0.042960983 0.16180857 -0.7396208 0.25551775 -0.49975282 -0.12035005 0.18011607
0.08569612 -0.76708084 0.064554274 0.17787011 0.1280282 -0.12011653 0.11637802 -0.43592387
00000000: 6eb1 313e 223c 013e f812 93be 216f a93c
00000010: 1a23 d3be 66be 353e 6838 efbe d8e9 43bf
00000020: 7ae9 8d3d 9c04 113e f23d 0a3d 213b be3d
00000030: 928a 9b3d dd4a 1a3e 3a52 513d 0d00 93be
00000040: 2825 13bf 73b7 83be f3e9 083e 3cbd 613e
00000050: ecb2 76be e1f4 2dbe 32e3 b8be c3e1 ac3d
00000060: 71de 0e3e 061f edbd f611 46be f091 dbbe
00000070: 1251 ea3d 403a 2fbe 15ff 433e 0cbd 0bbf
00000080: 339f 003d 361e f6be 1646 0bbe c469 83be
00000090: 4f21 473e 572b 8bbe 7101 ebbd c5a7 0abe
000000a0: 5f61 91be 0056 d9be ddc8 ab3d 3e1e 183e
000000b0: 3163 6cbe 2e8c 15bf 0d3b 73be 1a61 a7be
000000c0: a7d5 883e 3f3a 82be c9a3 1c3e 4532 643e
000000d0: 8f0b 46bf acf0 91be b34a c7be 5940 973d
000000e0: 884e 1bbe 92e4 81bc 1763 7bbe d2e9 0bbf
000000f0: 5e2d 8abe 7a07 53be e4cd 09bf f380 17bf
00000100: 5ba9 04bf ceb2 90be b3e3 1e3e c0e5 b1be
00000110: c6be 5bbe ef37 a13d 1ed5 3c3e 011b 673e
00000120: da07 d6bd ea03 03bf 9abd b6be 9738 2f3e
00000130: b40d fcbe da63 ad3d 79a2 b9bd f88d 04be
00000140: 96dc ccbe e01e e0be f3c6 2a3e 74d1 4e3e
00000150: b7cd 8c3d 8d3c 383e f8a1 47be ed92 cebe
00000160: 7512 f23d c086 acbd 5cc2 0b3e c228 5e3c
00000170: a9be 283d 3aa9 13bf f52c fcbd a957 1b3e
00000180: c8c6 0e3e 5747 193e d65d f7bd 4f02 86be
00000190: e76c 9fbe e680 683d 7f24 ebbe 3f39 3cbe
000001a0: b3db 443e 31a0 1cbd a320 16bf ec90 143e
000001b0: 6fff fd3d e5e8 81be 9337 f03d 9cf1 a1be
000001c0: 083b babe cc78 07bf d4ea 8abc 30d8 6abe
000001d0: 3767 5d3e 37ce 0b3e 421d 233e f959 913d
000001e0: c092 03bf f4bd d33d fbdb 58bd dbbc 51be
000001f0: 09e0 f63d 6ba5 14bf ee08 e73d b0e3 f0bc
00000200: a4bf 6b3e e339 853c de20 123e 3d86 553e
00000210: 6553 2e3e 6146 453e 304d eebe 6fb3 15bd
00000220: 2444 02bf 54bb 05bf ae95 eabe bce4 32bd
00000230: 45dd 00bf 6bd5 2a3e a267 ccbd 9035 343e
00000240: 5897 b13d a1e7 853d 592f 043e fb9a bcbe
00000250: dec8 023e 2573 cdbc 3cf6 16bf 3ef9 5fbe
00000260: 51d1 d1bd 55e0 f3be dfbb bebe 06da e7be
00000270: 736a 2abf 7c7e febd c069 f23d bf47 c4be
00000280: df1c 5e3c be75 d6be 6063 dcbe d907 253e
00000290: 49b2 ec3d f68a 8ebe f834 6a3e ea7e a4be
000002a0: 6fe1 fabe 8cc6 8a3e cdf4 143e edd1 a2be
000002b0: a106 083e 1783 99be 1ac4 f2bd db59 403d
000002c0: 6bac 6c3c b16a ba3d d67d 293e 00a9 47be
000002d0: e142 e0be 3f03 fcbe ca33 67be 4b4f 04bf
000002e0: 64f1 cebe 68ac 123e 8007 0e3e 9664 aabe
000002f0: c043 063e 57b7 8b3d 1974 ffbe ad13 34be
00000300: d8c5 2c3e cec3 85be 9822 1e3e 4824 66bf
00000310: 841a b2be 90ac 5d3e c310 5abd 268b 89be
00000320: 67a0 5dbe 58f9 49be 0c91 6cbc c352 283e
00000330: 1b40 3e3e 88d5 253e f725 92be e00b 05bf
00000340: ef4a 153e e76e 2cbe 1cb4 863e f40b e1be
00000350: 26f0 e63d e7a0 b3be 6c2a 033e 4f42 0c3e
00000360: 7b7c d9be 2a26 a93d b56e 40be 6510 fabe
00000370: 4183 afbe 5ffc 0abf e7f9 1abf fb2f 8bbe
00000380: c6d2 3d3e 3839 c7be 5a58 69be bbd3 943d
00000390: 3b79 0fbf c3c6 1bbf 00c2 ea3d f776 54be
000003a0: ed53 c43d 4d21 13bf 9212 b0be 8722 f9be
000003b0: 2679 8dbe 5f52 3c3e 63c9 6c3c 3686 24bf
000003c0: a52e 033e dbf7 2fbd 25b1 253e ca57 3dbf
000003d0: 39d3 823e 9adf ffbe 167a f6bd 5970 383e
000003e0: 7381 af3d 695f 44bf 0835 843d 9523 363e
000003f0: d319 033e a8ff f5bd 9957 ee3d 6a31 dfbe

l3.bias f4 [24]
-0.16315506 0.25965855 -0.008723289 -0.020238567 -0.13400534 -0.01964969 0.05282828 0.17301829
0.065932624 -0.096238345 -0.06671886 0.21789744 0.054997113 -0.09111492 0.16973667 -0.015786385
-0.2559078 -0.12556376 0.07974523 0.10336888 -0.11266389 0.13497745 -0.06986355 -0.054618556
00000000: 1f12 27be f7f1 843e 20ec 0ebc 5acb a5bc
00000010: b238 09be 63f8 a0bc 7762 583d b52b 313e
00000020: af07 873d 9c18 c5bd e6a3 88bd 8220 5f3e
00000030: a744 613d 769a babd 73cf 2d3e 7352 81bc
00000040: 5906 83be c993 00be 7851 a33d 10b3 d33d
00000050: 53bc e6bd 8737 0a3e 9f14 8fbd b5b7 5fbd
