data.pth (torch, 100394 bytes, 6 tensors)

l1.weight f4 [120, 68]
000000 e7 a4 56 bb 73 44 a7 bc d6 d4 e7 bd 00 f4 10 bb
       -0.0032752098 -0.020418381 -0.11319892 -0.0022118092
000010 e8 16 86 3e ed fd ab 3e 58 87 c3 3d 1c 2b a5 bd
       0.2618935 0.33592167 0.09547299 -0.08064863
000020 ec 9c 09 3e c3 5f d1 bd fb 08 b5 bd 34 96 c9 bd
       0.13438767 -0.10223343 -0.088396035 -0.09843102
000030 6d 4a 54 bd 30 ec 97 bd 4d 2f 4d 3e e6 ca 87 3d
       -0.05182879 -0.07418096 0.20037575 0.06630497
000040 5b 10 13 be a0 1f c0 3d 12 4a b3 bd 63 03 06 3e
       -0.14361708 0.09381032 -0.08754362 0.1308723
000050 9f 9e 13 3e 0c 81 99 bd 38 92 84 3c 6c 7d db 3d
       0.14415978 -0.07495317 0.016183004 0.10717282
000060 52 8d a7 bd 4c c3 29 3d 42 1b 62 3c 27 24 07 3e
       -0.081812516 0.041446015 0.013800444 0.13197385
000070 9c c8 c1 bd 5c be 87 bd f7 1a 94 3d 00 82 d2 bd
       -0.09462091 -0.06628105 0.07231706 -0.10278702
000080 05 f6 e1 bc 86 17 92 bc c0 a1 81 3d 91 04 15 be
       -0.027583132 -0.017833482 0.063296795 -0.14552523
000090 c0 d3 5b bb f6 bc 72 3d 5c 90 b0 bd a0 b0 f0 bc
       -0.003354296 0.05926224 -0.08621284 -0.029381096
0000a0 ee 6f ee ba 42 b9 c8 bd e4 1a 69 3d 8c 14 9b 3d
       -0.0018191317 -0.0980096 0.05691041 0.075722784
0000b0 70 1a d2 bd 14 c7 af 3c ed aa 03 3d 28 e3 0f 3e
       -0.10258949 0.021457233 0.03214543 0.14051497
0000c0 03 9f bc be 2a 90 96 bd 49 b3 30 3d 0a 6a ec bb
       -0.36840066 -0.07351716 0.04313973 -0.0072147893
0000d0 1e 7e 8a 3d e3 f3 ae 3d 9a 8f bd 3e 64 ac c1 3c
       0.06762336 0.085426114 0.37023622 0.023641773
0000e0 54 9f 3c 3d 50 d8 9a bd d9 38 3d 3e f1 c7 46 3d
       0.046050385 -0.075607896 0.18478717 0.048530523
0000f0 0a ca e3 3e aa 64 0c 3d 61 ad e9 bd c5 07 ba bc
       0.4449008 0.03427569 -0.114100225 -0.022708783
000100 19 79 10 bd 50 52 a2 bd 2d a7 ca 3c 85 35 a0 be
       -0.035271738 -0.07925856 0.024737919 -0.31290832
000110 c2 ac 3c 3e 7c 47 2a be f5 59 25 3e 94 69 c2 bd
       0.18425277 -0.16628832 0.16147597 -0.09492794
000120 10 9e 04 3d 5c f9 a6 bd 62 71 6c bd 85 99 08 be
       0.032377303 -0.0815303 -0.057725318 -0.13339813
000130 47 8d 02 3a 10 d7 b5 3e 7b 07 6d 3e 74 03 5c bd
       0.00049801584 0.35515642 0.23147385 -0.05371423
000140 67 76 2f 3e 82 f7 19 be 35 58 a4 bd ab a8 18 3e
       0.1713501 -0.15035823 -0.08024637 0.14908092
000150 96 9c 69 be 91 9f 9a 3d 96 5b 42 3e 24 f3 d1 3d
       -0.22813639 0.07549966 0.1898025 0.102514535
000160 8c ad 5f 3e 4f 27 90 bd a4 a5 6e 3d b3 0c 84 3e
       0.21843547 -0.070387475 0.058263436 0.2579094
000170 db e9 e7 3d f8 c7 b4 3d 00 04 a0 bd b2 2a 62 3e
       0.11323901 0.088272035 -0.07813263 0.220866
000180 9f 4b b2 3e b3 60 5a bd 40 a2 8f 3c e8 e2 59 3d
       0.3482332 -0.053314876 0.017533422 0.05319491
000190 d3 74 f8 3d 79 d7 cf 3d 8b e2 55 3d d0 27 62 bd
       0.121316575 0.1014852 0.052218 -0.05521375
0001a0 b6 27 f4 bd 2e 37 ed 3c 6a 27 63 3e 18 69 ca bd
       -0.11921637 0.028956976 0.22183004 -0.09883326
0001b0 0a 6b 86 3b 8d 8b da bd 9d 46 82 3e 2b 82 07 3e
       0.0041021155 -0.106711484 0.254445 0.13233249
0001c0 00 9d 1e 3e ab d8 99 bc ec 71 2b be de 68 99 3e
       0.15489578 -0.018780073 -0.16742676 0.2996282
0001d0 ba f5 2a 3e 68 1c ce bd 56 83 aa 3d ff 4a 00 be
       0.166953 -0.10064012 0.083258316 -0.12528609
0001e0 d8 78 d4 bd a8 44 92 bd 58 38 0f 3f 3c 4b 53 3e
       -0.103746116 -0.071420014 0.5594535 0.20634168
0001f0 e2 b5 98 3e 44 74 a7 3d 18 5c 89 bc 5b fc bc bd
       0.29826266 0.08176473 -0.016767547 -0.092278205
000200 b4 43 24 be b7 c5 ad bd bc 19 80 be aa e2 11 3e
       -0.16041452 -0.08484977 -0.25019634 0.14246622
000210 ae 22 92 3d d8 c5 16 3d 46 d1 02 bc df e6 c2 b7
       0.07135521 0.036809772 -0.007984465 -2.323411e-05
000220 7e ca 12 be 00 0a ee bd 43 81 97 3e 0c 78 30 bd
       -0.14335057 -0.11623001 0.29590806 -0.043083236
000230 e2 4e 0b 3e 69 a4 8c be 11 2f dc bc 16 36 f1 bd
       0.1360431 -0.27469185 -0.026877912 -0.11777894
000240 a3 6c 26 3e 9a 5a c1 3d 1d af 91 3e bc 62 51 3e
       0.16252379 0.09441109 0.28453913 0.2044782
000250 d3 6f 6d 3e c2 d1 7b be d9 a7 2f 3e 82 d4 62 3e
       0.23187189 -0.24591735 0.17153873 0.22151378
000260 be a2 c1 3a ad b8 75 3c 78 ba 31 3e 4f 8f 9e 3d
       0.0014773232 0.014997643 0.17356288 0.07742178
000270 7a 0d f4 3d 02 7a fe bd 37 ee 6a 3d 12 f6 27 bd
       0.11916633 -0.12425615 0.057356086 -0.041006155
000280 2b f9 cc bb cb ad 40 bd 5a 2d d8 bd 15 cb 4e bd
       -0.006255289 -0.047040742 -0.10555525 -0.050486643
000290 7f 5d db bd 83 7f f9 ba 4c 09 bd bd 63 41 f5 bd
       -0.10711192 -0.0019035194 -0.09230289 -0.11975362
0002a0 35 52 f4 bd 8a 04 04 3d 2a 18 f8 3d 28 95 93 3e
       -0.11929742 0.03223089 0.12113984 0.28824735
0002b0 2f d1 35 3d 32 b1 27 3e 00 c8 bb 3d 19 d1 e9 bd
       0.044388946 0.16376188 0.09169006 -0.11416835
0002c0 67 c7 fd 3d 2f 3d 7d 3e 72 56 23 bd c2 dc f8 3d
       0.123915486 0.24730371 -0.039877363 0.12151481
0002d0 87 48 eb 3d 16 49 2e 3e 10 3a 52 be ec ff b8 3e
       0.11488443 0.17020068 -0.20529962 0.36132753
0002e0 c5 c3 a7 3e d5 8b 30 be 55 fa 16 3d 9c 29 8c bd
       0.32766548 -0.17240842 0.03685983 -0.06843874
0002f0 43 14 00 3e fb a3 c6 bc 55 7a d3 be ca 4e 83 3d
       0.12507729 -0.024248114 -0.4130427 0.06411512
000300 b9 2e 3d 3e ad 5a e2 bd f3 9d df bd 01 23 bb bd
       0.18474855 -0.11052451 -0.10918798 -0.09137536
000310 46 bb 26 be 1e 22 93 bd c5 dd 5f 3e d2 cf 4c 3e
       -0.16282377 -0.07184242 0.21861942 0.20001152
000320 8c f0 02 3e e0 28 f2 bc d0 eb 1c bd ef ad ad 3e
       0.12787074 -0.029560506 -0.038310826 0.33921763
000330 57 2f 1b 3e bb 83 e5 3e b1 f3 33 be 86 d9 0c be
       0.15154777 0.44827065 -0.1757343 -0.13754854
000340 d9 3e 58 be d0 6e fa 3d f6 c5 de bd 15 99 df 3e
       -0.21117724 0.12228167 -0.10877602 0.4367148
000350 4a 59 cc 3d 8d f6 37 be 1e e6 58 be 0b 4c 99 be
       0.09977968 -0.17965145 -0.21181533 -0.2994083
000360 3f ef 25 be 65 64 91 3e 8b db c7 3d 8c 2c 05 be
       -0.16204546 0.28396907 0.097586714 -0.13005275
000370 9d fa 1d 3e f1 34 e4 bd eb 61 8c 3c 12 ba ae bc
       0.15427633 -0.1114291 0.017136535 -0.02132896
000380 13 be d0 bc 8b 87 91 3c fb 7a 7b bb a1 7f 3c 3c
       -0.02548126 0.017764827 -0.0038372863 0.0115050385
000390 cb ee 0d be f5 07 80 3d d8 0c 94 3b c0 b1 05 bd
       -0.13860624 0.06251518 0.0045181327 -0.03264022
0003a0 5b 6b bf bd 38 10 55 3e 15 51 f9 3d 3d 17 65 be
       -0.09346648 0.20806968 0.12173668 -0.22372146
0003b0 ef cf 63 be ab cf 31 3e 4a 9a 3f 3d 85 34 73 be
       -0.22247289 0.17364375 0.046778 -0.23750503
0003c0 dc 9a 67 3e 5b f8 83 bd e9 f2 d2 3d c5 4e af 3e
       0.22617668 -0.064438544 0.10300238 0.34239784
0003d0 19 b7 8b 3e df 62 59 be f9 7a 37 be 51 6f 15 bd
       0.2728813 -0.21229123 -0.17918004 -0.036483113
0003e0 e2 d5 98 bc 46 0b 25 3d 02 60 10 3e 8a 7d 69 bd
       -0.018656675 0.040293954 0.14099124 -0.05700449
0003f0 e6 b2 65 bc 41 f1 fd 3d b9 d1 66 bd 6f 7c 34 be
       -0.0140197035 0.12399531 -0.05635235 -0.17625593

l1.bias f4 [120]
000000 eb 6c 36 39 04 4d d1 3d b1 2c 87 3d 04 7f 4b 3e
       0.00017397448 0.10219768 0.06600321 0.19872671
000010 14 ea 73 3e 9c 98 08 3d 2b 55 6f 3e 26 69 b2 3e
       0.23819762 0.033348665 0.23372333 0.34845847
000020 72 cc 95 3d a2 b5 13 3e e3 18 98 3d 0a e5 31 3e
       0.073143855 0.14424756 0.07426622 0.17372528
000030 6d b2 8d 3e 78 ad 3e 3e 4a 15 0a 3e d5 f7 c5 3d
       0.2767519 0.1862086 0.13484684 0.09666411
000040 be e1 32 3e 33 bc 9e 3e 5d aa 01 3e 5b 6e 52 3e
       0.17468926 0.3100296 0.12662645 0.2054991
000050 2c ff 20 3e 7a 26 41 3d 2e 53 6b 3e 1e 15 18 3e
       0.1572234 0.047155835 0.2298095 0.14851806
000060 1c f3 74 3e 63 96 d1 3d 22 e3 cb bc c0 f8 77 3e
       0.23920864 0.10233762 -0.024888579 0.24215984
000070 08 20 fa 3d 1e 33 56 3e cd 5d 0b 3e 6f 23 87 3e
       0.12213141 0.20917937 0.13610001 0.2639422
000080 8b 69 07 3e 73 45 d3 bd 69 b5 26 3e 1f e3 e0 3d
       0.13223855 -0.10315981 0.1628014 0.1098082
000090 f4 1a 3f 3e 05 e3 81 3c 51 a0 08 3e 77 45 d9 3d
       0.18662626 0.015855322 0.13342406 0.106089525
0000a0 95 a7 33 3d c7 c6 0b 3e 98 bb 20 3e 8f 42 8b 3e
       0.04386099 0.13650046 0.15696561 0.27199218
0000b0 38 49 17 3e a4 51 1d bc 43 81 12 3e d7 d3 2b 3e
       0.14774024 -0.009601984 0.14307122 0.16780029
0000c0 36 72 bc 3c a3 3f 10 3e 30 7d 3b 3e 8c f6 26 3e
       0.023003679 0.14086775 0.18309474 0.16304988
0000d0 52 22 f2 3d 84 12 73 3e fb 6c 75 bc 15 a9 29 3e
       0.11822952 0.23737532 -0.014979596 0.16568406
0000e0 a1 1d 0c 3e 27 2f b4 3d 18 36 a7 3e f6 9a 63 3e
       0.13683178 0.08798056 0.32658458 0.22227082
0000f0 47 29 8d 3e c5 31 9e 3d d5 01 28 3e f8 59 5d 3e
       0.27570555 0.077243365 0.16406949 0.21616352
000100 90 cb a8 3e 83 12 48 3e cd 6a 14 3e 6a 54 fe 3d
       0.32967806 0.19538312 0.14493866 0.124184445
000110 72 27 11 3e e6 ee f5 3d 71 17 b8 3d 32 90 27 3e
       0.14175203 0.12008457 0.08988846 0.163636
000120 87 76 0d 3e 88 20 7b 3e d0 43 8c 3e 64 e8 83 3e
       0.13814746 0.24524128 0.27395487 0.25763237
000130 38 70 d4 3d a4 63 e6 3d 99 6f 78 3d 98 f5 2a 3e
       0.103729665 0.11249474 0.060653303 0.16695249
000140 0f f2 6c 3e d9 69 2c bc 41 69 1c 3d 6c 8c f4 3d
       0.23139213 -0.010523283 0.038186315 0.11940846
000150 69 e5 8c 3e 7c 23 db 3d 51 b3 90 3e e4 1f 81 3d
       0.27518776 0.107001275 0.28261808 0.06304911
000160 06 2c 1c 3e 90 38 2c 3e 10 12 18 3e 3f da 15 3d
       0.15251169 0.16818452 0.1485064 0.03658509
000170 a0 4f ae 3d 2f e0 42 3e 8d f5 d8 3b e9 07 af 3d
       0.08511281 0.19030832 0.006621069 0.085464306
000180 d1 81 27 3e 69 33 1f 3d 66 16 6d 3e f2 81 6e 3e
       0.16358115 0.038867388 0.23153076 0.23291758
000190 a5 a7 8f 3d c3 a5 af 3d 08 7c 6b 3e 47 fe c1 3d
       0.070143975 0.085765384 0.22996533 0.09472328
0001a0 dc 08 6c 3e e4 83 16 bd 3c 8c 2c 3d 0a d0 0d 3d
       0.23050255 -0.036746874 0.042125925 0.03462223
0001b0 7f 79 22 3e 9c db 9e 3e f9 b5 64 3e 56 b1 b2 3e
       0.1586666 0.31026924 0.22335042 0.34900922
0001c0 11 de 1f 3e 20 98 6c 3d 2c cc 3e 3e a1 98 e8 3d
       0.15612055 0.057762265 0.18632573 0.11357237
0001d0 d5 45 d4 3d 0d e5 12 3e f5 7f 13 3e 52 53 35 3e
       0.10364882 0.14345188 0.1440428 0.17707565

l2.weight f4 [120, 120]
000000 56 f7 2e bd a2 b4 a5 bd 38 6f bc bd e3 d2 0e 3e
       -0.042716347 -0.080910936 -0.09200901 0.13947634
000010 ff a3 fc be 2d ec 72 bc 06 8d 92 bd 9b 11 21 3d
       -0.4934387 -0.0148268165 -0.07155804 0.03932343
000020 ee fe b5 3d aa 4d 6c be 8e 4b 89 3c cd 87 8c 3d
       0.088865146 -0.23076501 0.01675966 0.068618394
000030 51 86 82 bd 8d 33 11 be f7 67 0f 3e 5e a9 0a 3e
       -0.06373275 -0.14179821 0.14004503 0.13541171
000040 af 98 e8 bd 4d d8 e9 3d 25 f0 7a 3d e3 bf af be
       -0.11357247 0.11418209 0.061264176 -0.34326085
000050 0e ca dc 3d dc 34 03 3d 34 fa 1e 3e 76 97 40 3e
       0.107807264 0.032032833 0.15525132 0.18807778
000060 60 2e a4 3d 8e 6a cb 3d 71 fe 83 be 7d cc e9 3d
       0.08016658 0.09932433 -0.2578006 0.11415956
000070 6c 54 00 3e 2a c9 d6 3c ad 80 30 be ac 5e b6 3d
       0.12532204 0.02621897 -0.17236586 0.08904776
000080 ce e5 51 be 44 8b 32 bd b4 6b 11 be 39 69 87 be
       -0.2049782 -0.043589845 -0.14201242 -0.26447466
000090 8e 1b b7 3c 4f 7d 55 be c2 6f 54 3e 3d 22 5c be
       0.022352006 -0.20848583 0.20745757 -0.21497436
0000a0 3e fe 1f 3e e9 66 1a 3e 19 78 00 3e 72 9a 7e 3e
       0.1562433 0.1507832 0.12545814 0.24863604
0000b0 bc 75 49 bd c7 bc 8e be cb 68 4f bd 8f b7 f0 3b
       -0.049184546 -0.278784 -0.050637048 0.0073461006
0000c0 96 b1 71 3e 0e 27 b0 3d 14 47 28 3d 47 c1 47 3e
       0.236029 0.08601199 0.04108341 0.19507323
0000d0 5b 55 f5 3c cf 94 79 bd fe c6 38 3c 12 07 8c 3d
       0.029947927 -0.06093293 0.011277912 0.06837286
0000e0 be 3a 23 be 27 ce 1a 3e 9c 3e e0 3c 96 85 57 3b
       -0.15940377 0.15117703 0.027373604 0.003288602
0000f0 89 91 51 be 13 c7 8d 3e a9 7a 96 3d 81 b6 2a 3e
       -0.20465674 0.27690944 0.07347614 0.16671182
000100 19 46 7e be ed a6 45 bd 15 0c a0 3d 2b 14 62 be
       -0.24831428 -0.048254896 0.078148045 -0.22078006
000110 81 a6 6e 3e 27 ef 6e 3e ac 99 a7 3d 52 27 91 bb
       0.23305704 0.23333417 0.081836075 -0.004429736
000120 82 85 59 be 77 df 32 bd 3a 2c 35 be d2 05 d5 3d
       -0.21242335 -0.043670144 -0.17692652 0.10401501
000130 58 11 1c be 78 de 61 3e 21 d5 5b 3e 23 c0 5f 3d
       -0.15240991 0.22057521 0.21468021 0.054626595
000140 e2 b1 39 3e 2c 7c d8 be e3 8f 17 bc 36 1a 99 3d
       0.18134263 -0.42282236 -0.009250614 0.074757025
000150 40 9a 4f 3e 93 6e c9 3c 6a a7 8a 3a 9e 40 f5 3d
       0.20273685 0.024588859 0.0010578458 0.119752154
000160 a8 be 33 be 12 fe 8f 3d 1c 07 2c 3e e6 ab 34 be
       -0.17553198 0.07030882 0.16799587 -0.17643699
000170 40 17 bd 3d c4 61 fd bd 40 dd 0d be 59 14 05 3d
       0.0923295 -0.12372163 -0.13853931 0.03249011
000180 7c 5c 1d 3e ee f9 cf bd 58 9e 6e bd 08 e6 63 bc
       0.15367311 -0.10155092 -0.058256477 -0.013909824
000190 1e 83 02 bd c2 4c ae 3e 11 a8 eb 3b 43 fd 9f bc
       -0.031863324 0.34042937 0.007191666 -0.019529944
0001a0 31 2e 37 3e a8 7b 46 3e 02 67 9c 3e 61 18 ae 3d
       0.17888714 0.19383109 0.3054734 0.08500744
0001b0 29 e1 b9 bd 07 c3 ab bc 87 6b 01 3d 94 d7 e5 bc
       -0.09076149 -0.02096702 0.031596687 -0.028056897
0001c0 c7 82 d4 3c 78 80 e7 bd c1 61 f8 bd e3 19 ab 3e
       0.025941266 -0.113038 -0.1212802 0.33418187
0001d0 d7 af 5a bd 0c 54 cb 3d 6f 48 6f bc 81 65 15 be
       -0.05339035 0.0992814 -0.014604672 -0.14589502
0001e0 ba 3e 62 3e 63 32 f6 bd 65 a1 16 bd 34 9d ad 3d
       0.22094241 -0.12021329 -0.03677501 0.0847725
0001f0 66 24 5e 3e 38 91 94 3c 8b b7 85 bd 58 28 96 3e
       0.21693572 0.018135652 -0.06529149 0.29327655
000200 c4 ee e8 3d 48 17 17 3d f0 3f db bd 56 fd 49 3b
       0.11373666 0.036887437 -0.107055545 0.0030821166
000210 f4 9f c5 bb 77 5d ed 3d 52 a0 2f 3e f5 76 a1 3d
       -0.006031031 0.11590093 0.17151001 0.078840174
000220 4a 4f 2e 3d 23 66 3d bd b8 1d 2e bc 69 8e ac 3d
       0.042556085 -0.046239983 -0.010627203 0.084256
000230 d1 4c c8 3d 4e 71 2e be ee 97 cd 3e 19 f2 8f 3e
       0.097802766 -0.1703541 0.40154976 0.28114393
000240 66 35 5a 3e 5a 13 67 be 0c 86 e9 bd 8b ed 41 3c
       0.21309432 -0.22565976 -0.114025205 0.01183642
000250 c8 21 31 bd cb 20 10 bd 98 40 8f bd f8 1a f7 3c
       -0.043245107 -0.035187524 -0.06994742 0.030164227
000260 55 d9 51 be 4b df a5 3d cc fa 66 3e 33 c3 8a 3e
       -0.20493062 0.080992304 0.22556609 0.2710205
000270 6f 42 1c bd 27 6d 9c bd 62 c0 5f 3d c4 f9 e5 bd
       -0.038149294 -0.07638007 0.05462683 -0.1122928
000280 6b 57 bd bc 93 ef cb 3d 8f 2f 15 3e 29 20 e7 3d
       -0.023112973 0.099578045 0.14568923 0.11285431
000290 f4 83 85 3d f7 65 d0 3d 62 28 64 be df c4 a3 bd
       0.06519309 0.10175698 -0.2228103 -0.079965346
0002a0 1b 01 4b 3e 5d 8d 6d bd d1 c9 03 be 7a ec 7b 3e
       0.1982464 -0.057996143 -0.12869956 0.24601927
0002b0 3e d7 40 be 31 69 95 3e c0 d5 c2 3d 2a e6 01 3e
       -0.18832108 0.29181817 0.09513426 0.12685457
0002c0 3b d6 07 bd a9 43 a4 be 17 32 6c bd 68 41 9c bd
       -0.03316329 -0.3208287 -0.057664957 -0.07629663
0002d0 53 6c f1 3d 70 97 9b bd bf 77 5b be 31 ea c8 3d
       0.11788239 -0.07597244 -0.21432398 0.098102935
0002e0 a3 e5 51 3e 85 68 0e 3e 45 d7 75 bb 1b a9 1a 3e
       0.20497756 0.13907059 -0.0037512344 0.15103571
0002f0 d0 58 23 be a8 28 18 3e 30 87 e3 bd 34 09 ff bd
       -0.15951848 0.14859259 -0.11109769 -0.12452927
000300 48 f1 56 be 0b 96 b8 3e 88 45 86 3e 94 5f 4c be
       -0.20990479 0.36051974 0.26224923 -0.19958335
000310 d3 31 61 3d 66 2b 89 bd 6f d9 cf bd 0b 52 ad bd
       0.054979157 -0.06697731 -0.10148894 -0.08462914
000320 9f 6a 87 3e 15 a4 fa bc b5 89 a9 be a7 d2 6d be
       0.26448533 -0.030595819 -0.33112875 -0.23224889
000330 5c 02 66 bd d9 c9 a8 bd 29 41 fc 3d 39 43 67 bd
       -0.056154594 -0.082416244 0.12317116 -0.056460593
000340 5c 00 13 3e 38 79 61 3e dd a6 43 3e a2 50 39 3e
       0.14355606 0.22018898 0.19106622 0.18097165
000350 3b 65 73 be 14 d2 b9 3d 59 44 e5 3d 1c 5c 2b be
       -0.23769085 0.09073272 0.11194677 -0.16734356
000360 3c 6f f7 3c 16 b9 bb 3d f9 9b 78 3b db 7b 9c 3d
       0.030204408 0.09166162 0.0037934764 0.07640811
000370 3e a3 4b 3d db 0a 38 3e ca e8 90 3d a6 21 21 3e
       0.049716227 0.17972891 0.07075651 0.15735492
000380 ab 3d 9b 3c 2a dc 55 3b 05 85 15 be 9c f4 98 3d
       0.018950304 0.0032632449 -0.14601524 0.074685305
000390 72 bf d5 3d f8 be 6f 3e 3f 07 88 3e e7 5d 8a 3e
       0.10436906 0.23412693 0.26568028 0.27024767
0003a0 f4 73 33 bd e9 0b ed bc 11 d1 99 3e 7b c6 b9 3d
       -0.043811753 -0.028936343 0.30042318 0.0907106
0003b0 4f cd 0d 3e fc c1 42 be 47 5e 2a 3d ed b5 e1 bc
       0.1384785 -0.19019312 0.041593816 -0.02755257
0003c0 9f 82 27 3e 84 75 53 3d 77 8a 6d 3c ab 17 93 3e
       0.16358422 0.051625744 0.014498345 0.28728995
0003d0 a7 09 3d 3e cc 2f 83 be 5f 79 9b 3e b9 0f 00 3d
       0.18460713 -0.25622404 0.30366036 0.031264994
0003e0 63 2e 00 be d0 52 a3 bd d0 57 19 3e 0d 99 f2 3d
       -0.12517695 -0.079747796 0.14974904 0.11845598
0003f0 80 e8 0e be 53 72 fc bd 53 aa 8b 3e 14 32 3b be
       -0.13955879 -0.12326493 0.27278385 -0.18280822

l2.bias f4 [120]
000000 ea 48 dd bd 95 fc 89 3e b4 44 88 3d 46 d0 06 3e
       -0.10804923 0.26950517 0.06653729 0.13165388
000010 1b 1a 45 3d f0 0f 99 3e cb ff 99 3c bc c9 0b bd
       0.0481206 0.29894972 0.01879873 -0.034127936
000020 ea 7a ce bc 10 e8 00 bc fe bc 3f 3e bf 5d 8b bc
       -0.025205094 -0.007867828 0.18724439 -0.017012475
000030 64 f9 20 3e 6b 4c 01 3b 60 ec 8c 3d 55 6e dd 3d
       0.15720135 0.0019729387 0.068810225 0.1081206
000040 86 9b bb bd f4 30 0d bd 76 9f 88 bd 21 c3 01 be
       -0.09160523 -0.034470513 -0.0667104 -0.12672092
000050 36 cf 34 bd 58 a4 18 3e 71 6d 09 bd 8c 8d bf bd
       -0.044142924 0.14906442 -0.033551637 -0.0935317
000060 c5 95 ac 3d 53 6d dc bd 26 b1 84 3d b3 1a 91 bd
       0.08427004 -0.107630394 0.06479101 -0.070851706
000070 52 f4 33 be 39 70 2a 3c fb 2a e4 3c 0e 95 ae 3d
       -0.1757367 0.0104027325 0.027852526 0.08524524
000080 d1 18 48 3e db aa 87 bd e3 3a fb 3d 7f c7 bc 3d
       0.19540717 -0.06624385 0.12267091 0.09217738
000090 ed c1 c4 3d 80 f9 df 3c 18 f5 45 bd f4 b6 ef 3b
       0.09607301 0.02734065 -0.048329443 0.007315511
0000a0 d7 81 49 3e fb 0b fb bd 79 28 fe 3d d0 7b 0a be
       0.19678436 -0.122581445 0.12410063 -0.13523793
0000b0 4e fa 06 3e 1c c1 96 bd db 9e 89 3d ad 64 28 3c
       0.13181421 -0.073610514 0.067197524 0.010277909
0000c0 f6 9a c7 bd 9a 43 f4 bd 98 b6 13 3d 38 21 d4 3d
       -0.09746353 -0.119269565 0.036062807 0.103578985
0000d0 d9 2c a6 bd cd 38 45 3e 45 01 25 3e c5 f5 28 3e
       -0.08114023 0.19259949 0.16113766 0.16500004
0000e0 b2 c2 dd 3d 87 a2 74 3d 1b 94 ff 3c a3 eb 1c bc
       0.10828151 0.05972531 0.031198552 -0.009577665
0000f0 3f 9f 9d bd ff a0 b6 3c 93 61 25 3e 94 67 0a 3e
       -0.076963894 0.022293566 0.16150503 0.13516074
000100 b9 37 40 3e 37 9b be bd 98 18 1f be 8b 42 25 bc
       0.18771257 -0.09306949 -0.15536726 -0.010086666
000110 31 4b 00 3e 9b 11 42 3e ad 42 f1 bd 45 62 2c 3e
       0.12528683 0.18952028 -0.117802955 0.16834362
000120 d3 6e 8d 3d 06 91 35 3e 6a ab c1 3d 9a bd 2d 3e
       0.06905904 0.17731103 0.09456523 0.16966859
000130 9e b8 7d bc 41 2b 93 3d dc 70 07 bd f5 07 62 bd
       -0.015485911 0.071859844 -0.033066615 -0.05518337
000140 f3 73 c6 3d 0c c3 80 3e e4 80 5a 3d 5e fb 63 bd
       0.09690084 0.2514881 0.053345576 -0.055659644
000150 15 da 26 bd 8f b8 08 3e 01 40 27 3e 27 56 c4 3d
       -0.040735323 0.13351654 0.1633301 0.09586745
000160 63 08 15 3e 3f 2f a9 3d fb d9 1c bb 73 89 ea bb
       0.1455398 0.082609646 -0.0023933637 -0.0071574985
000170 dd e2 84 bd 8f f6 3e 3e 51 e9 0f be c0 99 82 3d
       -0.06488583 0.18648742 -0.14053847 0.06376982
000180 77 c6 cf bd a0 ad 3e 3e 04 39 30 3e f3 a9 86 3c
       -0.10145276 0.1862092 0.1720925 0.01643846
000190 a5 e2 cc 3d 9c 37 20 3d 0d 21 49 3c be 7e 89 bd
       0.100041665 0.039115533 0.012275946 -0.06713627
0001a0 d4 09 4c 3e 8b 3a 22 3e bb 23 48 3e f6 8d 4d 3e
       0.19925624 0.15842645 0.1954488 0.20073685
0001b0 0d de 5d 3e b1 4e a8 3d 06 a6 d6 bd 67 ae 77 bd
       0.21666737 0.08218134 -0.10480885 -0.060469057
0001c0 09 0d 13 3e b3 9d 3b 3d e4 9e 1a 3e 6b fd ca 3d
       0.14360441 0.04580469 0.15099674 0.09911617
0001d0 9a f8 13 3d 43 4f 26 3e 25 3b 5e 3d 0b 1d f1 3c
       0.036125757 0.16241173 0.054255623 0.029432794

l3.weight f4 [12, 120]
000000 d3 b6 5c 3e cf 4d 45 3e 00 64 78 be 6a be 03 be
       0.21554117 0.19267963 -0.24256897 -0.12865606
000010 7e a8 07 3e b7 86 37 be 80 c8 47 be c7 f7 a1 3d
       0.13247868 -0.17922483 -0.19510078 0.07908588
000020 a7 01 89 3c 89 a7 47 3e 7e 5d a7 be 31 68 97 be
       0.01672442 0.19497503 -0.32688516 -0.2957168
000030 2a 5a 16 3e 52 07 88 be ad c4 ae be fc 16 0c 3d
       0.14682832 -0.26568085 -0.34134427 0.034201607
000040 04 b4 1b 3e cb 75 f9 bd 0a b7 42 be b2 61 be 3c
       0.1520539 -0.1218067 -0.19015136 0.023239944
000050 17 51 42 3e 21 b9 2d 3e 98 01 ff 3d 69 27 93 bd
       0.18976246 0.16965152 0.12451476 -0.07185251
000060 52 df 08 3e 85 62 22 3e 63 a1 17 3e 42 38 f6 3d
       0.1336644 0.15857895 0.14807658 0.12022449
000070 68 d2 c5 3d 96 31 07 3e 8b 65 5f be d3 66 1f 3e
       0.096592724 0.1320251 -0.2181608 0.15566568
000080 20 40 06 3e f9 29 77 be 26 68 ae 3d 37 c3 f7 3d
       0.13110399 -0.24137105 0.085159585 0.12097781
000090 de ac 3b 3e 82 e3 8e 3d c4 9c 04 3e 1b 67 c9 3d
       0.18327662 0.069769874 0.12950426 0.09834119
0000a0 30 59 1f 3e 99 61 18 3e a9 f0 50 be 4d 56 82 be
       0.15561366 0.1488098 -0.20404305 -0.25456467
0000b0 f0 cf a2 3d 45 df a6 3d 96 3d 40 3e 44 e4 06 3e
       0.07949817 0.08148054 0.18773493 0.13173014
0000c0 55 ef 1b 3e 21 83 1a 3e 35 e0 43 3e 80 b0 e3 3d
       0.15228017 0.15089084 0.19128497 0.11117649
0000d0 3d bb 16 3e e9 81 c1 bc bd 25 a3 be 33 19 c9 be
       0.14719863 -0.023621516 -0.3186473 -0.39277038
0000e0 a1 aa 9d 3e dd c3 53 bb 25 46 95 3d ef e6 4d be
       0.30794242 -0.0032312789 0.0728877 -0.20107625
0000f0 ac ac db bc 60 91 ba be 21 7f 2f 3e e4 da e1 3d
       -0.026815735 -0.36439037 0.1713834 0.11028078
000100 28 bf 88 be 6c ef 81 bc 91 9c a4 3d 3d 5a d9 3d
       -0.2670834 -0.015861236 0.08037675 0.10612915
000110 85 9a 87 be 0c 1d a4 be 80 64 48 3e dc a0 2b 3e
       -0.26485077 -0.3205341 0.19569588 0.16760582
000120 07 89 9d be 3d 67 b6 be 4e 96 aa be df e3 22 be
       -0.30768606 -0.3562564 -0.33317798 -0.15907238
000130 ae f4 bb be b7 ea 22 3e 3c 37 7a 3d a2 57 a3 be
       -0.36710113 0.15909849 0.06108783 -0.31902796
000140 d2 4a 6b be 77 ff 20 3e ed 53 c4 be 0a af 7b be
       -0.2297776 0.15722452 -0.3834528 -0.24578491
000150 69 4e bd 3d fc 48 50 be c4 a1 6c be 50 5c e3 3d
       0.09243471 -0.20340341 -0.23108584 0.111015916
000160 80 88 1d 3e f5 88 60 be 97 f5 9d be 42 15 f2 3d
       0.15384102 -0.21927245 -0.30851433 0.11820461
000170 7a 6c 17 bf 91 64 51 3d 41 db a4 bb 5d ce f3 bd
       -0.591499 0.0511213 -0.00503102 -0.11904595
000180 e0 d8 13 3e bf b5 8b 3d 9b e4 b4 be bc 6e bd 3d
       0.144382 0.06821775 -0.35330662 0.092496365
000190 0f c0 70 be 52 88 ae bb 32 7b 9c 3c 0f ec 3d 3e
       -0.23510765 -0.0053263092 0.019101713 0.1854708
0001a0 96 7f ef 3d 36 bf 09 bd 07 7d 63 3d 46 5d ea be
       0.11694257 -0.03362962 0.055539157 -0.45774287
0001b0 46 d5 80 be f8 d9 c8 be f0 80 04 3e 3c 77 e1 3d
       -0.25162715 -0.39228797 0.12939811 0.1100907
0001c0 30 fd e6 be 52 ce 8b 3d 87 eb df be cd 3b a1 be
       -0.45115042 0.06826462 -0.4373438 -0.31490937
0001d0 0b 29 d2 be 56 45 be bd 25 75 f2 be a2 f3 00 3e
       -0.41046938 -0.092905685 -0.47355 0.12592939
0001e0 05 f8 2f 3e 29 20 9e be 53 b7 28 3e 60 5b 70 be
       0.17184456 -0.3088391 0.16476183 -0.23472357
0001f0 f7 b8 63 be d3 46 0b 3e b8 8c b9 bd b5 4b 93 be
       -0.22238527 0.13601236 -0.09060043 -0.28768697
000200 9c a1 44 3e 8c 84 05 be 0c 08 a9 bd 9f bb 73 3e
       0.19202274 -0.13038844 -0.08253488 0.2380204
000210 65 00 87 3c 9f 53 8c be ea c6 25 3e 30 26 b7 bb
       0.01647968 -0.27407548 0.16189161 -0.005589269
000220 7b 35 f4 bd 91 15 da 3d b2 9b 8d be 94 0a 69 3d
       -0.11924263 0.10648645 -0.2765785 0.056894854
000230 77 0d 6b 3e c2 e3 67 3e b1 9f 71 be 87 84 fd 3d
       0.22954355 0.22645476 -0.23596074 0.12378793
000240 b8 e2 96 be eb 8a 34 bd b3 bc 88 be a0 60 f5 bd
       -0.29469848 -0.044077795 -0.26706466 -0.119813204
000250 fc 90 6c 3e a5 00 a9 be 18 2a 55 3e dc 95 75 be
       0.23102182 -0.33008304 0.20816839 -0.23982948
000260 95 2e 28 bd 29 ab 03 be de 42 69 be d1 6f 25 3d
       -0.04106005 -0.12858261 -0.22779414 0.04038984
000270 00 42 7e 3e c1 be 5e 3e b3 e3 4a 3e b2 e0 22 be
       0.24829865 0.21752454 0.19813423 -0.15906027
000280 90 0f 93 be 92 71 5b 3e 77 9b 22 be e1 5a 5d 3e
       -0.2872281 0.21430042 -0.15879618 0.21616699
000290 6d 8b 54 3e be e4 86 3d cd bc 2d be cc 6a 98 be
       0.20756312 0.06586598 -0.16966553 -0.2976898
0002a0 3a f5 19 3e 85 91 16 be b5 2d c3 be bb e0 02 3e
       0.15034953 -0.14703949 -0.3812081 0.1278104
0002b0 eb ec 5f be 28 a4 24 3e a5 8c 72 3b 5f 31 b4 be
       -0.21867721 0.16078246 0.00370101 -0.35193917
0002c0 fa 75 c3 bd 93 9b 86 bd be 6c 28 be 63 9e d1 3e
       -0.095439866 -0.06572642 -0.16447732 0.40941152
0002d0 18 4b 14 bd 07 b3 3f 3e 1b b0 4c be 19 bc da 3d
       -0.036204427 0.18720637 -0.19989054 0.10680408
0002e0 c3 ac 9f 3d 96 da 8b 3e df 45 8f be 54 55 12 3e
       0.077966236 0.27315205 -0.27982995 0.14290363
0002f0 3d c8 38 3e 3d 26 45 3e 41 1a e6 3d 87 35 34 be
       0.18045135 0.19252868 0.11235476 -0.17598544
000300 05 c6 41 3e 95 4a c9 3d 63 1b a9 be 00 c0 fa 3c
       0.18923195 0.098286785 -0.33028707 0.03060913
000310 91 d3 e5 3d 70 a1 a3 be 8b cc 34 be 5d eb 33 be
       0.11221994 -0.31959105 -0.17656152 -0.17570253
000320 ec 3c b3 be 5c 23 8c be d7 4d 3d 3e 45 46 56 3e
       -0.35007417 -0.27370727 0.18486725 0.20925243
000330 3a 3b 15 be dc b0 d9 3d cd cc 7f 3e ce a1 ff bd
       -0.14573374 0.106294364 0.24980469 -0.12482034
000340 af 41 b5 be 17 c2 a1 be 8c c3 87 be db 03 09 3e
       -0.35401675 -0.3159339 -0.26516378 0.13380377
000350 50 57 82 3d 01 10 f1 3d af 65 f6 3d 23 df 48 be
       0.0636431 0.11770631 0.12031113 -0.1961637
000360 c1 72 44 3e 11 84 6d be ec 56 32 3e f2 bc 66 be
       0.191844 -0.2319491 0.1741597 -0.22533014
000370 bb 64 11 3e 6c f0 05 be 8d b8 d1 be 6e 4a 00 3e
       0.14198582 -0.13079995 -0.40961114 0.12528393
000380 34 d0 6a be 50 c9 9f be d3 1c c1 bd 1b 02 26 3e
       -0.22930986 -0.31208277 -0.09429326 0.1621174
000390 53 d2 30 3e fa 6f 05 bd 7d 0b ba be 6e 70 52 3d
       0.17267732 -0.032577492 -0.3633689 0.051376753
0003a0 a7 cc 0b 3e fa 8f da bd 27 37 3e 3e f4 df 07 3e
       0.13652287 -0.106719926 0.18575726 0.13269025
0003b0 c6 b8 28 be 90 20 8a be 11 0f a1 3d 0a 31 89 be
       -0.16476735 -0.26977968 0.07864202 -0.26795226
0003c0 38 e9 44 be 9e 68 be 3d 1c 9c ef bd 57 92 a3 bd
       -0.19229591 0.09297298 -0.116996974 -0.079868965
0003d0 4b 9f 6b 3d 2d e9 c4 be 44 bb 1b 3e 43 c9 91 be
       0.05752496 -0.3845915 0.15208155 -0.28473863
0003e0 35 bf fc 3d 62 ce 72 be 54 7d 64 be 6a f4 af bd
       0.12341157 -0.23711541 -0.22313434 -0.0859154
0003f0 7f 30 be be 03 52 14 3e 11 41 b4 be 60 98 fc be
       -0.37146375 0.1448441 -0.35205892 -0.49335003

l3.bias f4 [12]
000000 57 a5 13 be fb 6f 7e be 14 69 5d be 61 3a d9 bd
       -0.14418541 -0.24847405 -0.21622115 -0.10606838
000010 9c bb 63 be 48 33 19 3e 4b fb 8c 3e 72 b3 c4 3d
       -0.22239536 0.14960968 0.2753547 0.09604539
000020 6b 58 22 be 69 2e 15 be ca 7c 9c 3d 1d 32 ca 3d
       -0.15854041 -0.14568485 0.07640989 0.098728396
