data.pth (torch, 111383 bytes, 6 tensors)

l1.weight f4 [120, 88]
0.089030445 0.20724718 0.15347819 0.31373358 0.37312213 -0.039774816 0.30888173 -0.1646923
0.2334595 -0.030664053 -0.22106197 -0.08222849 -0.17638151 0.10462235 -0.049939193 0.40305313
-0.19816776 0.3002038 0.003422838 -0.2791939 -0.24649918 -0.11138511 0.22369541 0.09186715
0.063114494 -0.01224348 0.002361238 -0.05658004 0.020594766 0.0077405027 -0.09445842 0.042895973
0.12947176 0.20622136 -0.077802956 -0.21209736 -0.08309047 -0.07543177 0.23996003 0.2854533
-0.06630323 -0.1620522 -0.13147612 0.17748375 0.1024898 -0.06714353 0.077714555 0.018831486
0.26998553 -0.046797615 0.19662195 0.08449632 0.17494257 0.20623966 -0.005041451 -0.09440882
-0.123918414 -0.16300216 -0.029982021 -0.0412687 -0.13331242 0.22073402 0.016129544 -0.14513473
-0.059323866 -0.12558939 0.31318986 -0.4062497 0.001098151 -0.16571787 -0.0940892 -0.05253558
-0.0010472452 0.26144344 -0.102772884 -0.04789501 -0.02060702 0.07540843 -0.109058924 0.18423523
-0.088826746 0.24198592 0.06679527 0.09728468 0.0048537925 -0.012137811 0.030405542 -0.16553949
-0.034158867 0.03112642 -0.019571148 0.060335193 0.004722534 -0.20149574 -0.017796448 0.17757194
-0.15039752 -0.059874944 0.23940897 0.04366838 0.24048465 0.13145766 0.18441439 0.15470271
-0.36533323 0.3061261 -0.08692408 -0.44041994 -0.22214763 -0.1432969 -0.20815611 -0.044964667
-0.4448904 0.22423992 0.11972849 0.017136633 0.06650041 -0.14118564 0.09432782 -0.090729564
-0.06819051 0.07132167 0.101803005 0.32533243 -0.038925372 0.18282309 -0.14289533 0.17703046
0.17492391 0.21318027 0.23672846 -0.037115593 -0.13733156 -0.24332206 -0.089977935 -0.13411278
0.020912718 -0.12407225 -0.03282788 -0.047182385 0.066828966 -0.12528376 0.14820145 0.24435644
0.24356914 0.53185433 0.029050501 -0.07149845 -0.32028222 0.15409525 -0.16785558 -0.2563862
-0.16025174 0.055294532 -0.1563842 -0.5204562 0.02022712 0.37483072 -0.08550374 0.18115123
0.22394718 -0.14225769 -0.046979636 -0.16396679 -0.030535236 0.17782143 0.045024037 0.011587526
0.21709691 -0.13165183 -0.15134206 0.2276038 0.068317614 0.018021207 0.15947779 0.2510637
-0.089310855 0.17464091 0.058420528 -0.16778179 0.14303951 -0.08276967 0.3178013 -0.15144713
0.31968316 -0.018498994 -0.17582303 -0.027503636 -0.11838355 -0.1292449 -0.2111392 0.27046853
-0.07786498 -0.48205987 -0.06770465 0.16825604 0.16775312 0.41403428 -0.20329179 0.1321802
0.0074588433 -0.06639123 -0.014848466 -0.13121271 0.029842585 -0.10812236 -0.11528934 0.0834689
0.10178286 0.2747032 -0.08454527 -0.2579851 -0.094707265 -0.07102199 0.4675549 0.16473372
-0.039232466 -0.15189539 -0.14909437 -0.021668922 0.050187446 -0.0052168174 0.26446217 0.0619717
0.1627513 0.21549419 -0.045125965 -0.11955322 0.23972334 0.25643897 -0.08324286 0.063945375
-0.26644343 -0.17783707 0.05754198 0.19983877 -0.093417875 -0.034586333 0.10147634 0.24000366
0.416993 0.03862052 0.18438461 0.5760845 0.0065772017 -0.022760091 0.050582916 -0.1305786
-0.06995896 0.3678274 0.13016541 -0.3866944 0.14885996 -0.20166448 0.0989682 0.2664463
00000000: 9855 b63d 9b38 543e 6329 1d3e b0a1 a03e
00000010: dd09 bf3e ebea 22bd bf25 9e3e 19a5 28be
00000020: 0210 6f3e 2e33 fbbc 125e 62be 6967 a8bd
00000030: 5b9d 34be 3e44 d63d 0a8d 4cbd fb5c ce3e
00000040: 7dec 4abe 50b4 993e b151 603b 81f2 8ebe
00000050: 486a 7cbe e01d e4bd 6910 653e d824 bc3d
00000060: 2c42 813d e198 48bc 00bf 1a3b 79c0 67bd
00000070: 5bb6 a83c 0ba4 fd3b 6b73 c1bd b0b3 2f3d
00000080: 3f94 043e b12b 533e 2857 9fbd 0d30 59be
00000090: 562b aabd f97b 9abd 15b8 753e ef26 923e
000000a0: fdc9 87bd 03f1 25be ada1 06be 4dbe 353e
000000b0: 2ce6 d13d 8c82 89bd cf28 9f3d 7d44 9a3c
000000c0: 8b3b 8a3e dbae 3fbd 4457 493e 680c ad3d
000000d0: 2524 333e 7d30 533e c232 a5bb 6959 c1bd
000000e0: f0c8 fdbd 0aea 26be db9c f5bc 5e09 29bd
000000f0: 0d83 08be 1908 623e 1b22 843c 339e 14be
00000100: 95fd 72bd 819a 00be 6c5a a03e f6ff cfbe
00000110: d5ef 8f3a f2b1 29be d7b1 c0bd 8c2f 57bd
00000120: b843 89ba eadb 853e 977a d2bd 8f2d 44bd
00000130: 0ed0 a8bc bc6f 9a3d 495a dfbd 29a8 3c3e
00000140: ccea b5bd 28cb 773e f5cb 883d 313d c73d
00000150: 900c 9f3b abdd 46bc 0b15 f93c 2f83 29be
00000160: 2bea 0bbd d5fc fe3c ac53 a0bc 0922 773d
00000170: 7dbf 9a3b e654 4ebe dbc9 91bc 6bd5 353e
00000180: cf01 1abe 6e3f 75bd a027 753e 9ddd 323d
00000190: 9c41 763e d69c 063e 20d7 3c3e 636a 1e3e
000001a0: f50c bbbe 8fbc 9c3e 4105 b2bd b97e e1be
000001b0: ab7a 63be 6cbc 12be e026 55be df2c 38bd
000001c0: adc8 e3be 269f 653e 3634 f53d 2062 8c3c
000001d0: 5e31 883d f892 10be f22e c13d 6cd0 b9bd
000001e0: 77a7 8bbd 1911 923d 187e d03d f991 a63e
000001f0: 3670 1fbd fa35 3b3e 2753 12be 7947 353e
00000200: 411f 333e ee4b 5a3e f268 723e 8506 18bd
00000210: a5a0 0cbe 6b29 79be 5a46 b8bd dc54 09be
00000220: 2651 ab3c 9819 febd 8776 06bd 5142 41bd
00000230: a0dd 883d 634a 00be 1fc2 173e 9338 7a3e
00000240: 306a 793e 9b27 083f 51fb ed3c c86d 92bd
00000250: 08fc a3be 25cb 1d3e 55e2 2bbe 0d45 83be
00000260: 0819 24be 857c 623d 2e23 20be 9e3c 05bf
00000270: 58b3 a53c d0e9 bf3e 961c afbd b57f 393e
00000280: 6952 653e 00ac 11be b86d 40bd e9e6 27be
00000290: 0825 fabc d216 363e 206b 383d 9bd9 3d3c
000002a0: a74e 5e3e bdcf 06be 6af9 1abe f810 693e
000002b0: 1bea 8b3d 36a1 933c 254e 233e 6c8b 803e
000002c0: 9ce8 b6bd 11d5 323e 5d4a 6f3d fdce 2bbe
000002d0: f378 123e 2583 a9bd dab6 a23e f514 1bbe
000002e0: 83ad a33e 348b 97bc f40a 34be 4e4f e1bc
000002f0: 1373 f2bd c658 04be e034 58be da7a 8a3e
00000300: ad77 9fbd 8dd0 f6be bca8 8abd 504b 2c3e
00000310: 79c7 2b3e 4dfc d33e b92b 50be 3f5a 073e
00000320: 5069 f43b 20f8 87bd fb46 73bc a05c 06be
00000330: 7078 f43c 426f ddbd d11c ecbd bef1 aa3d
00000340: 8873 d03d e6a5 8c3e 1226 adbd 9f16 84be
00000350: e2f5 c1bd fa73 91bd 5b63 ef3e f5af 283e
00000360: 39b2 20bd 778a 1bbe 32ac 18be 0683 b1bc
00000370: 5a91 4d3d d6f1 aabb 9667 873e 0ad6 7d3d
00000380: 47a8 263e 82aa 5c3e 01d6 38bd 52d8 f4bd
00000390: 097a 753e f84b 833e 3c7b aabd cbf5 823d
000003a0: 466b 88be ec1a 36be 24b1 6b3d 89a2 4c3e
000003b0: df51 bfbd 66aa 0dbd d4d2 cf3d 85c3 753e
000003c0: 1b80 d53e 8d30 1e3d 52cf 3c3e 467a 133f
000003d0: 9185 d73b 5f73 babc 0830 4f3d 66b6 05be
000003e0: a546 8fbd df53 bc3e 154a 053e cffc c5be
000003f0: bf6e 183e 2281 4ebe d7af ca3d a66b 883e

l1.bias f4 [120]
0.09438261 0.34984845 0.05454689 0.10172534 0.23560594 0.21180108 0.06962791 0.233428
0.06872445 0.11108397 0.18658325 0.18258885 0.25192612 0.1406568 0.07778389 0.17731835
0.24623664 0.10569538 0.07906492 0.2639423 0.19319984 0.2333516 0.21448614 -0.067836486
0.19681156 0.16375926 0.19970107 0.18122548 0.08062687 0.20887908 0.11814827 0.16898
0.1385827 0.14139903 0.17047517 0.11865251 0.24765822 0.032414123 0.15945376 0.11537923
0.13398875 0.08938167 0.22161014 0.2486337 0.072868295 0.2660274 0.2593359 0.14102796
0.176757 0.08023906 0.0932209 0.08878637 0.16936296 0.13898517 0.15810844 0.26095256
0.168173 0.050728906 0.30168122 0.19256699 0.12108408 0.087546594 0.06475195 0.2644127
0.08118137 0.13442704 0.07517685 0.071077466 0.13900489 0.2759181 0.10593939 -0.026173873
0.21088737 0.23490176 -0.020757833 0.22133082 -0.017580822 -0.013889664 0.22421393 0.3352512
0.2682529 0.21975598 0.078926004 0.15441012 0.26293704 0.20437124 0.16402535 0.28801483
0.036255386 0.15996517 0.037558027 0.116544 0.2768209 0.23503141 0.25751686 0.18429275
0.2320919 0.11723231 0.34633878 0.17759648 0.15006794 0.07676568 0.20036344 0.04723742
0.21705501 0.22031875 0.33495933 0.09394054 0.18629272 0.2201522 0.24896498 0.1470608
0.1733137 0.30809993 0.20310092 0.19374853 0.21718052 0.107665695 0.13309918 0.17701799
00000000: ab4b c13d 561f b33e 8f6c 5f3d 6055 d03d
00000010: af42 713e 62e2 583e 1499 8e3d c007 6f3e
00000020: 68bf 8c3d fe7f e33d ae0f 3f3e 92f8 3a3e
00000030: 76fc 803e 5608 103e 294d 9f3d f192 353e
00000040: 7525 7c3e d276 d83d caec a13d 7223 873e
00000050: 2ed6 453e b9f3 6e3e 41a2 5b3e dbed 8abd
00000060: f888 493e 82b0 273e 707e 4c3e 2c93 393e
00000070: b31f a53d 66e4 553e b8f7 f13d 1809 2d3e
00000080: a0e8 0d3e e8ca 103e 0b91 2e3e 1600 f33d
00000090: 1e9a 7d3e acc4 043d d947 233e f24b ec3d
000000a0: 5934 093e bd0d b73d c5ed 623e d599 7e3e
000000b0: f93b 953d be34 883e adc7 843e a269 103e
000000c0: c9ff 343e 6054 a43d 99ea be3d a1d5 b53d
000000d0: 7c6d 2d3e 2152 0e3e 2ee7 213e 939b 853e
000000e0: 8b35 2c3e 1dc9 4f3d f675 9a3e 4830 453e
000000f0: eefa f73d a14b b33d ac9c 843d 1a61 873e
00000100: 6b42 a63d 3ea7 093e 52f6 993d 1091 913d
00000110: 4c57 0e3e 2345 8d3e c0f6 d83d 976a d6bc
00000120: dcf2 573e 168a 703e 550c aabc 8ca4 623e
00000130: a805 90bc 7991 63bc 5698 653e 0ca6 ab3e
00000140: 7258 893e b607 613e f5a3 a13d b01d 1e3e
00000150: af9f 863e b246 513e 43f6 273e ae76 933e
00000160: 8780 143d e9cd 233e 72d6 193d 9fae ee3d
00000170: 78bb 8d3e 13ac 703e 40d9 833e 3db7 3c3e
00000180: 80a9 6d3e 7e17 f03d 5153 b13e dadb 353e
00000190: 69ab 193e 5337 9d3d 132c 4d3e 067c 413d
000001a0: ab43 5e3e 3d9b 613e ca7f ab3e e663 c03d
000001b0: 85c3 3e3e 946f 613e adf0 7e3e 1b97 163e
000001c0: 2679 313e 46bf 9d3e b0f9 4f3e 0466 463e
000001d0: 9264 5e3e d57f dc3d 274b 083e 3444 353e

l2.weight f4 [120, 120]
-0.4361552 -0.21209735 0.13515155 -0.017072646 0.12842678 0.059856866 -0.28022048 0.040481135
-0.006191616 -0.028626572 -0.1367641 0.1772024 -0.18732105 -0.32975897 0.15457048 -0.034927197
-0.37096816 -0.09847246 0.021100344 0.012717468 -0.10573533 -0.065446034 0.076723725 0.09454155
0.19110782 -0.08385759 0.43535617 0.08511323 -0.07718015 -0.01398144 0.24963947 -0.26066208
-0.048260707 -0.04254318 0.088250026 0.4476175 0.008891739 0.29107425 0.2672394 -0.04212375
0.112309895 0.14259477 0.2841351 0.14274727 0.11919377 0.09700115 -0.4120071 -0.13588853
0.24411727 0.21607555 0.058194347 0.18388394 -0.11408536 -0.43821615 0.08655188 0.3035851
0.15034224 0.061479725 -0.3363734 0.15046626 0.24737331 -0.24945745 0.03146434 -0.012487949
-0.060541555 -0.054068737 0.013209467 0.12506066 0.04293252 0.050935768 0.57325196 0.058411025
-0.021865718 0.062590405 0.04337831 -0.4743087 0.29937127 -0.15533493 -0.14805108 -0.46058863
-0.31985566 -0.27350035 0.1367148 0.15604834 0.17357695 -0.010156074 -0.1918007 0.36063653
0.302947 0.06559645 0.114511415 -0.014906869 0.06952523 -0.14838856 -0.10194971 -0.012836842
0.26308465 -0.062203042 -0.29106352 -0.021773491 -0.18666434 0.4332301 -0.030558895 0.07940012
-0.05281025 0.106661215 0.057396855 -0.009842018 0.13717137 0.2520803 0.0941024 0.008538236
-0.15386397 -0.44431943 -0.12281027 -0.17002462 -0.031829894 0.4905195 -0.022904888 0.17844465
-0.0875888 -0.23981519 -0.04232413 0.055909883 0.10360338 0.34761313 -0.52848095 0.3043058
-0.09441554 -0.08830222 -0.15193638 0.27174607 -0.07118495 -0.028962245 0.16769049 0.08169932
0.024319082 0.1335882 -0.11917068 -0.011537142 -0.0636794 0.020596769 0.1819801 -0.19053805
-0.07934066 0.14823915 0.18731226 -5.4132875e-06 0.27446282 0.20739126 -0.09909625 -0.05941974
-0.09181417 -0.023074668 0.23969425 0.5530146 0.28234574 0.004622531 0.2808842 -0.13900034
0.1862392 0.12973228 0.44692263 0.34113222 0.23261072 0.12657884 -0.1601152 -0.1629895
-0.24595091 -0.059492465 -0.033095706 0.26865187 0.076212056 -0.25240797 -0.07123781 0.098390326
-0.10271317 -0.020978738 -0.04102499 0.290185 -0.3545963 0.049642548 0.018298928 0.100975595
-0.06410888 -0.018832656 0.07127695 -0.0013020559 0.23790103 0.006222286 0.20016775 -0.074513145
0.23420918 -0.22762634 0.06882857 -0.1272504 0.27991903 0.051051408 -0.0457168 -0.20410806
-0.014239956 0.22898398 -0.040752806 0.13711886 0.12230078 0.006193358 -0.18516831 0.4099261
0.4066751 0.019444104 0.08886722 -0.025435973 0.03872735 -0.023240298 -0.12939186 -0.053621642
0.11075123 0.0731282 -0.17348032 0.014497588 -0.10299799 0.046207674 -0.15016891 0.3018934
-0.034426235 -0.2150521 0.101704925 -0.005622683 -0.1604646 0.42535624 0.2583023 0.028158607
-0.15414578 0.052376874 0.35048193 -0.075774774 0.013121285 0.29543298 -0.08541928 0.20389763
-0.1634739 -0.11002137 0.038253535 0.026753169 0.16907872 0.21052401 -0.14881204 0.26921657
-0.06291802 0.061825782 -0.26139852 0.098448016 -0.014727795 -0.34853217 0.34213397 0.16945769
00000000: bc4f dfbe 0c30 59be 2b65 0a3e efdb 8bbc
00000010: 4f82 033e 792c 753d 0f79 8fbe 8ccf 253d
00000020: 0ae3 cabb 4682 eabc e30b 0cbe 8c74 353e
00000030: 17d1 3fbe 2bd6 a8be b947 1e3e d20f 0fbd
00000040: 8aef bdbe eeab c9bd a1da ac3c ed5c 503c
00000050: c48b d8bd 9208 86bd 5421 9d3d 009f c13d
00000060: c5b1 433e 87bd abbd 01e7 de3e d84f ae3d
00000070: a010 9ebd 6912 65bc 7da1 7f3e 8075 85be
00000080: 05ad 45bd c241 2ebd 6ebc b43d 1f2e e53e
00000090: a8ae 113c af07 953e 9ad3 883e f489 2cbd
000000a0: bb02 e63d 5d04 123e 287a 913e 572c 123e
000000b0: dd1b f43d 8aa8 c63d 98f2 d2be 5d26 0bbe
000000c0: e1f9 793e e942 5d3e 325d 6e3d 124c 3c3e
000000d0: 96a5 e9bd de5d e0be 1d42 b13d 826f 9b3e
000000e0: 51f3 193e 2ad2 7b3d 2239 acbe d413 1a3e
000000f0: 6e4f 7d3e c671 7fbe c0e0 003d 419a 4cbc
00000100: 6cfa 77bd 2e77 5dbd 856c 583c e70f 003e
00000110: 03da 2f3d 06a2 503d a4c0 123f 6640 6f3d
00000120: bc1f b3bc 662f 803d 74ad 313d 97d8 f2be
00000130: 3147 993e 1f10 1fbe b49a 17be 46d2 ebbe
00000140: 1fc4 a3be 3d08 8cbe f7fe 0b3e 23cb 1f3e
00000150: 28be 313e a965 26bc 6767 44be 5aa5 b83e
00000160: df1b 9b3e 6e57 863d f684 ea3d f13b 74bc
00000170: 3e63 8e3d 2cf3 17be 02cb d0bd 9e51 52bc
00000180: 08b3 863e 9ec8 7ebd 4706 95be 525e b2bc
00000190: f024 3fbe 56d0 dd3e a656 fabc 889c a23d
000001a0: 904f 58bd 3271 da3d f718 6b3d 6a40 21bc
000001b0: a776 0c3e ab10 813e c2b8 c03d f5e3 0b3c
000001c0: 848e 1dbe d67d e3be f383 fbbd ef1a 2ebe
000001d0: 1060 02bd 5f25 fb3e 08a3 bbbc 32ba 363e
000001e0: c261 b3bd 1d92 75be 115c 2dbd c301 653d
000001f0: 022e d43d 59fa b13e 874a 07bf f8cd 9b3e
00000200: ef5c c1bd cbd7 b4bd 3695 1bbe 4d22 8b3e
00000210: 6ac9 91bd 3b42 edbc 0eb7 2b3e f951 a73d
00000220: d038 c73c 58cb 083e c20f f4bd 4806 3dbc
00000230: 586a 82bd 8eba a83c fe58 3a3e 681c 43be
00000240: 5b7d a2bd 01cc 173e c9ce 3f3e c9a3 b5b6
00000250: 6486 8c3e 605e 543e faf2 cabd 1d62 73bd
00000260: 1109 bcbd 1607 bdbc 6972 753e 5d92 0d3f
00000270: 9f8f 903e 9a78 973b 0ed0 8f3e 1b56 0ebe
00000280: 7db5 3e3e 8ad8 043e 0bd3 e43e e2a8 ae3e
00000290: 8131 6e3e e29d 013e 3df5 23be b8e6 26be
000002a0: 8eda 7bbe 5fae 73bd 5d8f 07bd bd8c 893e
000002b0: 1115 9c3d 9e3b 81be 21e5 91bd de80 c93d
000002c0: 485b d2bd 9adb abbc d209 28bd 2193 943e
000002d0: a58d b5be fc55 4b3d a2e7 953c 4bcc ce3d
000002e0: 844b 83bd f146 9abc a6f9 913d bfa9 aaba
000002f0: 549c 733e 51e4 cb3b c6f8 4c3e 599a 98bd
00000300: 88d4 6f3e e116 69be fef5 8c3d ee4d 02be
00000310: 8c51 8f3e 481b 513d 8a41 3bbd b401 51be
00000320: b44e 69bc c77a 6a3e 6aec 26bd e368 0c3e
00000330: d578 fa3d a7f1 ca3b c39c 3dbe d5e1 d13e
00000340: b837 d03e 3e49 9f3c 0400 b63d 1a5f d0bc
00000350: 92a0 1e3d 7062 bebc 4d7f 04be 5ea2 5bbd
00000360: 8ad1 e23d 3dc4 953d d3a4 31be 4b87 6d3c
00000370: 9cf0 d2bd 4244 3d3d e1c5 19be c691 9a3e
00000380: 8602 0dbd 9e36 5cbe ac4a d03d 7c3e b8bb
00000390: d550 24be 4bc8 d93e 3340 843e e1ac e63c
000003a0: 64d8 1dbe 2289 563d 5e72 b33e ce2f 9bbd
000003b0: a8fa 563c fe42 973e 4ef0 aebd 8aca 503e
000003c0: b465 27be e252 e1bd bdaf 1c3d 7629 db3c
000003d0: f922 2d3e 9b93 573e 2f62 18be c1d6 893e
000003e0: 2adb 80bd 083d 7d3d 07d6 85be 1d9f c93d
000003f0: d94c 71bc cf72 b2be 2f2c af3e 5186 2d3e

l2.bias f4 [120]
-0.07624785 -0.046901345 0.28464386 0.030067611 -0.038515966 0.1911411 0.061201043 -0.12693124
0.048341647 0.07006467 0.096499436 0.065075666 0.10141659 0.082054764 0.06252041 0.007347529
0.01989835 0.14609447 0.12180298 0.06976331 0.15041625 -0.03620651 -0.046386123 0.042215567
0.11778347 0.09312798 0.016049946 0.16455658 0.040811 0.06575681 -0.020327834 -0.04414123
-0.16019717 0.13169177 -0.012012028 0.08438544 0.100880936 -0.033926144 0.031548638 0.016339792
-0.020985778 0.193302 -0.00012938387 0.010718037 0.021041663 0.060760155 -0.09430057 0.030988947
0.20874888 -0.05770704 -0.15642218 0.0646801 0.11656762 0.15453342 0.10357967 0.16240226
-0.11662203 0.09542324 -0.102644555 -0.025357706 0.10849084 -0.1675943 0.23638554 0.038062084
-0.023512058 -0.000799047 -0.18212697 0.004931094 -0.007238595 0.11972369 0.24398768 0.08102783
-0.07778852 0.012949965 0.02177084 -0.027732883 0.0044219205 0.11969771 0.18320881 0.12347191
0.015793616 -0.044637594 0.08240603 0.04669286 0.096461646 0.19308391 0.06308336 -0.050825465
-0.06885835 0.038661007 0.041223064 0.028428892 0.015378614 0.10704779 0.010881665 0.026298543
0.020576214 0.005115701 0.100799255 0.07132921 0.08775033 0.124201864 -0.0045895497 -0.12920445
0.20171691 0.15349397 -0.052452866 0.06938762 0.032336835 -0.05768706 -0.034681093 0.07644771
-0.01585724 0.12748308 0.096393354 -0.03886578 0.027421309 -0.08543769 0.07139715 0.055659007
00000000: d527 9cbd a01b 40bd d7bc 913e 5a50 f63c
00000010: ebc2 1dbd 7eba 433e f2ad 7a3d 43fa 01be
00000020: e401 463d 117e 8f3d 7fa1 c53d 6446 853d
00000030: 80b3 cf3d 540c a83d b30a 803d 8ac3 f03b
00000040: dd01 a33c ca99 153e d773 f93d 11e0 8e3d
00000050: b806 1a3e 474d 14bd 60ff 3dbd 3bea 2c3d
00000060: 7638 f13d e2b9 be3d 2d7b 833c 8581 283e
00000070: 6f29 273d 82ab 863d 8f86 a6bc 6fcd 34bd
00000080: ba0a 24be 35da 063e 19ce 44bc 46d2 ac3d
00000090: aa9a ce3d 24f6 0abd 2539 013d 07db 853c
000000a0: 5eea abbc f6f0 453e 38ab 07b9 b59a 2f3c
000000b0: 915f ac3c a4df 783d a820 c1bd 88dc fd3c
000000c0: 44c2 553e 385e 6cbd 232d 20be 0077 843d
000000d0: 01bb ee3d 023e 1e3e 9421 d43d c74c 263e
000000e0: 88d7 eebd 426d c33d 4f37 d2bd f7ba cfbc
000000f0: 7230 de3d d79d 2bbe 0d0f 723e fde6 1b3d
00000100: 5c9c c0bc 2377 51ba 7e7f 3abe 0495 a13b
00000110: bc31 edbb b231 f53d e8d7 793e ebf1 a53d
00000120: 964f 9fbd 172c 543c c358 b23c 1230 e3bc
00000130: c2e5 903b 1324 f53d 179b 3b3e d7de fc3d
00000140: 9d61 813c e9d5 36bd 7ec4 a83d 0341 3f3d
00000150: af8d c53d cab7 453e d931 813d 5d2e 50bd
00000160: 9b05 8dbd 015b 1e3d 84d9 283d b5e3 e83c
00000170: 95f6 7b3c df3b db3d 0349 323c 0b70 d73c
00000180: 738f a83c 9ca1 a73b d76f ce3d 0d15 923d
00000190: 72b6 b33d 8c5d fe3d ef63 96bb 2c4e 04be
000001a0: e18e 4e3e 862d 1d3e d1d8 56bd 191b 8e3d
000001b0: a173 043d 4449 6cbd c30d 0ebd 9e90 9c3d
000001c0: 0be7 81bc ed8a 023e e169 c53d b931 1fbd
000001d0: a7a2 e03c f5f9 aebd ab38 923d b3fa 633d

l3.weight f4 [15, 120]
-0.11783693 0.031622436 -0.16256854 0.19810875 0.09233763 -0.40057856 -0.1023159 0.11049922
-0.48153648 0.15235133 -0.04955851 -0.38208616 0.21426743 -0.05426852 0.14558947 -0.25101468
-0.4968198 -0.33735397 0.06277053 -0.51741743 0.09596827 0.14157961 -0.5216307 0.14697848
0.016749443 -0.37375018 -0.38538185 0.10071326 -0.41407207 -0.04791442 -0.21829121 -0.39198998
-0.047668036 -0.45702213 -0.44827926 -0.2573646 -0.30347177 -0.15749948 0.21098618 -0.112946294
0.195339 -0.7042699 0.09905815 0.09636771 -0.55288893 -0.36339527 0.14283025 0.15353914
0.16677861 -0.28549963 -0.022004249 -0.57420284 -0.023456162 -0.3108954 -0.22563824 -0.18455862
-0.34295726 0.20184274 -0.16292915 0.07709546 0.19154955 -0.12653476 0.11362514 0.26696622
0.22637379 0.13525575 0.17944974 -0.38907558 0.132693 0.17953011 0.077353194 -0.47024164
0.060606096 0.15634394 0.12789647 -0.31132853 0.11091339 -0.45222977 -0.014493893 0.08913325
0.09915735 0.15816817 -0.09561923 -0.2908491 -0.40692163 0.041730102 0.119692616 0.12866876
-0.44613603 0.15221404 0.23365133 -0.2114509 0.03086695 0.16780879 -0.49734902 0.13297947
-0.4883119 0.11410523 -0.355551 0.0693839 -0.40729567 -0.048106536 0.14501576 -0.53572685
0.11717007 0.07288577 -0.54829496 0.17055477 0.19399971 -0.42579308 -0.3033397 0.08762517
0.18592083 -0.073570974 -0.22918421 0.010323703 -0.37236276 -0.3603095 -0.2509171 0.06346843
-0.2951401 -0.37248945 -0.478626 0.02723935 0.035360258 -0.4600469 -0.23718955 0.1710205
-0.03348622 -0.47586018 -0.21572523 -0.20287822 0.14420174 -0.03718668 -0.48843172 0.08541242
0.17430978 -0.10590563 0.13528278 -0.6152381 -0.19605266 -0.22591197 -0.3397788 0.10717258
0.16047755 0.22470646 -0.11133803 -0.12193693 0.14338778 -0.18258336 0.18662967 0.08160094
0.07860653 0.08830604 -0.4280369 -0.0071415147 0.17299166 0.18824455 -0.26999924 0.20047002
-0.2184952 -0.61627257 -0.05988603 -0.5015155 0.12814333 0.21854493 -0.42772233 -0.28344238
-0.157921 0.13196392 0.10962206 0.14875266 0.11425287 -0.0043339226 0.251716 0.22689119
0.12783773 -0.38047123 0.09047458 -0.15283543 -0.22446297 0.33894125 -0.0018278911 -0.1234766
0.23504236 -0.0027847015 0.20065407 -0.3417239 0.12676074 -0.39608952 -0.020823332 0.05462085
0.20588909 0.17107545 0.12869562 0.07022705 0.16918108 0.14707921 -0.22789113 0.001335844
0.098292746 -0.4759392 -0.47515628 0.07912471 0.33104104 -0.48466322 0.086357325 0.0015237022
-0.35864222 -0.3486054 0.09259253 -0.49050343 0.09210728 -0.469212 0.17482394 0.095195346
-0.5158687 0.012477676 0.14344077 -0.3129892 0.0882682 -0.40310565 0.21254152 0.0913388
-0.40181133 -0.4126788 -0.14805458 -0.3965937 0.12893157 0.21022724 0.10595492 0.1604249
0.15571402 -0.37955976 -0.42094314 -0.3745545 -0.5832076 -0.33766502 -0.41038004 -0.28144982
0.15629831 0.08023924 0.09341692 0.09868681 0.17352366 0.004590715 0.14875452 -0.39740708
0.1028054 0.18869878 -0.4689915 -0.4345577 -0.3801474 0.11352196 0.00509899 -0.39234534
00000000: 7d54 f1bd 8786 013d 5e78 26be 05dd 4a3e
00000010: 831b bd3d a218 cdbe 008b d1bd 6a4d e23d
00000020: f38b f6be fd01 1c3e ddfd 4abd cca0 c3be
00000030: ec68 5b3e ab48 5ebd 6815 153e ff84 80be
00000040: 2a5f febe a9b9 acbe d68d 803d 7875 04bf
00000050: 038b c43d 3ffa 103e 9789 05bf 8781 163e
00000060: 2136 893c 2f5c bfbe c550 c5be c142 ce3d
00000070: 4101 d4be e941 44bd bb87 5fbe e9b2 c8be
00000080: 8f3f 43bd cefe e9be dc84 e5be 4bc5 83be
00000090: a760 9bbe 8b47 21be c30c 583e 6350 e7bd
000000a0: f206 483e 084b 34bf 00df ca3d 6f5c c53d
000000b0: 218a 0dbf f20e babe 1842 123e 5d39 1d3e
000000c0: 03c8 2a3e 022d 92be 4142 b4bc f5fe 12bf
000000d0: 2327 c0bc af2d 9fbe b60d 67be effc 3cbe
000000e0: 1898 afbe ddaf 4e3e e6d6 26be 39e4 9d3d
000000f0: 9125 443e 5492 01be 4cb4 e83d ccaf 883e
00000100: 88ce 673e 7c80 0a3e acc1 373e ea34 c7be
00000110: ace0 073e bed6 373e 5a6b 9e3d 83c3 f0be
00000120: 193e 783d a018 203e 4bf7 023e 7466 9fbe
00000130: 8f26 e33d a98a e7be cb77 6dbc 7e8b b63d
00000140: 0213 cb3d d6f6 213e 04d4 c3bd 2cea 94be
00000150: 0858 d0be 2fed 2a3d 6721 f53d bec1 033e
00000160: f16b e4be ffdd 1b3e 4b42 6f3e 9686 58be
00000170: b0dc fc3c 11d6 2b3e 88a4 febe c52b 083e
00000180: 0404 fabe 01b0 e93d c80a b6be 2519 8e3d
00000190: 0f89 d0be 5c0b 45bd 037f 143e 6525 09bf
000001a0: ddf6 ef3d 2245 953d 0f5d 0cbf e9a5 2e3e
000001b0: dca7 463e 8d01 dabe 574f 9bbe d374 b33d
000001c0: 0862 3e3e 61ac 96bd 44af 6abe c024 293c
000001d0: 55a6 bebe 7d7a b8be 3578 80be bcfb 813d
000001e0: 9a1c 97be f0b6 bebe 780e f5be 0f25 df3c
000001f0: ebd5 103d 448b ebbe d1e1 72be ff1f 2f3e
00000200: d928 09bd f2a3 f3be 13e7 5cbe 4fbf 4fbe
00000210: 9fa9 133e 0f51 18bd b913 fabe b5ec ae3d
00000220: 437e 323e 0de5 d8bd 9287 0a3e 3e80 1dbf
00000230: 07c2 48be 7855 67be 7df7 adbe 4c7d db3d
00000240: 3a54 243e 7319 663e 3105 e4bd 12ba f9bd
00000250: 3fd4 123e 22f7 3abe d91b 3f3e 651e a73d
00000260: 76fc a03d ccd9 b43d a727 dbbe 5e03 eabb
00000270: ba24 313e 2ec3 403e 573d 8abe 0348 4d3e
00000280: 35bd 5fbe 0ac4 1dbf 0e4b 75bd 5263 00bf
00000290: 0138 033e 3eca 5f3e 6cfe dabe 5c1f 91be
000002a0: 0bb6 21be 8d21 073e 8881 e03d 9e52 183e
000002b0: 69fd e93d 9403 8ebb ebe0 803e 2a56 683e
000002c0: e5e7 023e 20cd c2be bd4a b93d e480 1cbe
000002d0: 9fd9 65be b589 ad3e d995 efba 4de1 fcbd
000002e0: f2ae 703e 8a7f 36bb 4378 4d3e 6ff6 aebe
000002f0: 91cd 013e 3fcc cabe b195 aabc 1dba 5f3d
00000300: 97d4 523e 672e 2f3e c9c8 033e 33d3 8f3d
00000310: ce3d 2d3e ef9b 163e 4b5c 69be 7d17 af3a
00000320: b54d c93d 4eae f3be af47 f3be 230c a23d
00000330: 367e a93e c725 f8be 1cdc b03d f6b6 c73a
00000340: f49f b7be 687c b2be 27a1 bd3d 4423 fbbe
00000350: bea2 bc3d 8e3c f0be 0c05 333e c7f5 c23d
00000360: f90f 04bf 2b6f 4c3c 23e2 123e 1f40 a0be
00000370: f5c5 b43d dd63 cebe 7ca4 593e d60f bb3d
00000380: 37ba cdbe a34a d3be 9f9b 17be 540e cbbe
00000390: a306 043e cf45 573e e5fe d83d 6d46 243e
000003a0: 7f73 1f3e a855 c2be dc85 d7be 9cc5 bfbe
000003b0: 184d 15bf 6ee2 acbe 551d d2be 311a 90be
000003c0: aa0c 203e 7854 a43d 5f51 bf3d 4f1c ca3d
000003d0: 30b0 313e b56d 963b 1b53 183e f178 cbbe
000003e0: a38b d23d 413a 413e a71f f0be 597e debe
000003f0: aea2 c2be 347e e83d 6e15 a73b 7de1 c8be

l3.bias f4 [15]
-0.14543158 -0.12796465 -0.049012624 0.12303454 -0.096290834 -0.13084336 0.095564485 0.03389256
0.15392718 -0.039363243 -0.017807791 0.02730817 -0.12613441 0.023531687 0.06423862
00000000: 04ec 14be 2a09 03be 76c1 48bd 88f9 fb3d
00000010: 2134 c5bd cdfb 05be 50b7 c33d edd2 0a3d
00000020: 169f 1d3e 5a3b 21bd a5e1 91bc 62b5 df3c
00000030: 6129 01be 86c5 c03c 8a8f 833d
